saved_model_schema_version: 1
meta_graphs {
  meta_info_def {
    stripped_op_list {
      op {
        name: "Add"
        input_arg {
          name: "x"
          type_attr: "T"
        }
        input_arg {
          name: "y"
          type_attr: "T"
        }
        output_arg {
          name: "z"
          type_attr: "T"
        }
        attr {
          name: "T"
          type: "type"
          allowed_values {
            list {
              type: DT_BFLOAT16
              type: DT_HALF
              type: DT_FLOAT
              type: DT_DOUBLE
              type: DT_UINT8
              type: DT_INT8
              type: DT_INT16
              type: DT_INT32
              type: DT_INT64
              type: DT_COMPLEX64
              type: DT_COMPLEX128
              type: DT_STRING
            }
          }
        }
      }
      op {
        name: "AddN"
        input_arg {
          name: "inputs"
          type_attr: "T"
          number_attr: "N"
        }
        output_arg {
          name: "sum"
          type_attr: "T"
        }
        attr {
          name: "N"
          type: "int"
          has_minimum: true
          minimum: 1
        }
        attr {
          name: "T"
          type: "type"
          allowed_values {
            list {
              type: DT_FLOAT
              type: DT_DOUBLE
              type: DT_INT32
              type: DT_UINT8
              type: DT_INT16
              type: DT_INT8
              type: DT_COMPLEX64
              type: DT_INT64
              type: DT_QINT8
              type: DT_QUINT8
              type: DT_QINT32
              type: DT_BFLOAT16
              type: DT_UINT16
              type: DT_COMPLEX128
              type: DT_HALF
              type: DT_UINT32
              type: DT_UINT64
              type: DT_VARIANT
            }
          }
        }
        is_aggregate: true
        is_commutative: true
      }
      op {
        name: "AddV2"
        input_arg {
          name: "x"
          type_attr: "T"
        }
        input_arg {
          name: "y"
          type_attr: "T"
        }
        output_arg {
          name: "z"
          type_attr: "T"
        }
        attr {
          name: "T"
          type: "type"
          allowed_values {
            list {
              type: DT_BFLOAT16
              type: DT_HALF
              type: DT_FLOAT
              type: DT_DOUBLE
              type: DT_UINT8
              type: DT_INT8
              type: DT_INT16
              type: DT_INT32
              type: DT_INT64
              type: DT_COMPLEX64
              type: DT_COMPLEX128
            }
          }
        }
        is_aggregate: true
        is_commutative: true
      }
      op {
        name: "ArgMax"
        input_arg {
          name: "input"
          type_attr: "T"
        }
        input_arg {
          name: "dimension"
          type_attr: "Tidx"
        }
        output_arg {
          name: "output"
          type_attr: "output_type"
        }
        attr {
          name: "T"
          type: "type"
          allowed_values {
            list {
              type: DT_FLOAT
              type: DT_DOUBLE
              type: DT_INT32
              type: DT_UINT8
              type: DT_INT16
              type: DT_INT8
              type: DT_COMPLEX64
              type: DT_INT64
              type: DT_QINT8
              type: DT_QUINT8
              type: DT_QINT32
              type: DT_BFLOAT16
              type: DT_UINT16
              type: DT_COMPLEX128
              type: DT_HALF
              type: DT_UINT32
              type: DT_UINT64
              type: DT_BOOL
            }
          }
        }
        attr {
          name: "Tidx"
          type: "type"
          default_value {
            type: DT_INT32
          }
          allowed_values {
            list {
              type: DT_INT32
              type: DT_INT64
            }
          }
        }
        attr {
          name: "output_type"
          type: "type"
          default_value {
            type: DT_INT64
          }
          allowed_values {
            list {
              type: DT_INT32
              type: DT_INT64
            }
          }
        }
      }
      op {
        name: "AsString"
        input_arg {
          name: "input"
          type_attr: "T"
        }
        output_arg {
          name: "output"
          type: DT_STRING
        }
        attr {
          name: "T"
          type: "type"
          allowed_values {
            list {
              type: DT_INT8
              type: DT_INT16
              type: DT_INT32
              type: DT_INT64
              type: DT_COMPLEX64
              type: DT_COMPLEX128
              type: DT_FLOAT
              type: DT_DOUBLE
              type: DT_BOOL
            }
          }
        }
        attr {
          name: "precision"
          type: "int"
          default_value {
            i: -1
          }
        }
        attr {
          name: "scientific"
          type: "bool"
          default_value {
            b: false
          }
        }
        attr {
          name: "shortest"
          type: "bool"
          default_value {
            b: false
          }
        }
        attr {
          name: "width"
          type: "int"
          default_value {
            i: -1
          }
        }
        attr {
          name: "fill"
          type: "string"
          default_value {
            s: ""
          }
        }
      }
      op {
        name: "Assign"
        input_arg {
          name: "ref"
          type_attr: "T"
          is_ref: true
        }
        input_arg {
          name: "value"
          type_attr: "T"
        }
        output_arg {
          name: "output_ref"
          type_attr: "T"
          is_ref: true
        }
        attr {
          name: "T"
          type: "type"
        }
        attr {
          name: "validate_shape"
          type: "bool"
          default_value {
            b: true
          }
        }
        attr {
          name: "use_locking"
          type: "bool"
          default_value {
            b: true
          }
        }
        allows_uninitialized_input: true
      }
      op {
        name: "AssignVariableOp"
        input_arg {
          name: "resource"
          type: DT_RESOURCE
        }
        input_arg {
          name: "value"
          type_attr: "dtype"
        }
        attr {
          name: "dtype"
          type: "type"
        }
        is_stateful: true
      }
      op {
        name: "BiasAdd"
        input_arg {
          name: "value"
          type_attr: "T"
        }
        input_arg {
          name: "bias"
          type_attr: "T"
        }
        output_arg {
          name: "output"
          type_attr: "T"
        }
        attr {
          name: "T"
          type: "type"
          allowed_values {
            list {
              type: DT_FLOAT
              type: DT_DOUBLE
              type: DT_INT32
              type: DT_UINT8
              type: DT_INT16
              type: DT_INT8
              type: DT_COMPLEX64
              type: DT_INT64
              type: DT_QINT8
              type: DT_QUINT8
              type: DT_QINT32
              type: DT_BFLOAT16
              type: DT_UINT16
              type: DT_COMPLEX128
              type: DT_HALF
              type: DT_UINT32
              type: DT_UINT64
            }
          }
        }
        attr {
          name: "data_format"
          type: "string"
          default_value {
            s: "NHWC"
          }
          allowed_values {
            list {
              s: "NHWC"
              s: "NCHW"
            }
          }
        }
      }
      op {
        name: "Bucketize"
        input_arg {
          name: "input"
          type_attr: "T"
        }
        output_arg {
          name: "output"
          type: DT_INT32
        }
        attr {
          name: "T"
          type: "type"
          allowed_values {
            list {
              type: DT_INT32
              type: DT_INT64
              type: DT_FLOAT
              type: DT_DOUBLE
            }
          }
        }
        attr {
          name: "boundaries"
          type: "list(float)"
        }
      }
      op {
        name: "Cast"
        input_arg {
          name: "x"
          type_attr: "SrcT"
        }
        output_arg {
          name: "y"
          type_attr: "DstT"
        }
        attr {
          name: "SrcT"
          type: "type"
        }
        attr {
          name: "DstT"
          type: "type"
        }
        attr {
          name: "Truncate"
          type: "bool"
          default_value {
            b: false
          }
        }
      }
      op {
        name: "ConcatV2"
        input_arg {
          name: "values"
          type_attr: "T"
          number_attr: "N"
        }
        input_arg {
          name: "axis"
          type_attr: "Tidx"
        }
        output_arg {
          name: "output"
          type_attr: "T"
        }
        attr {
          name: "N"
          type: "int"
          has_minimum: true
          minimum: 2
        }
        attr {
          name: "T"
          type: "type"
        }
        attr {
          name: "Tidx"
          type: "type"
          default_value {
            type: DT_INT32
          }
          allowed_values {
            list {
              type: DT_INT32
              type: DT_INT64
            }
          }
        }
      }
      op {
        name: "Const"
        output_arg {
          name: "output"
          type_attr: "dtype"
        }
        attr {
          name: "value"
          type: "tensor"
        }
        attr {
          name: "dtype"
          type: "type"
        }
      }
      op {
        name: "Equal"
        input_arg {
          name: "x"
          type_attr: "T"
        }
        input_arg {
          name: "y"
          type_attr: "T"
        }
        output_arg {
          name: "z"
          type: DT_BOOL
        }
        attr {
          name: "T"
          type: "type"
          allowed_values {
            list {
              type: DT_BFLOAT16
              type: DT_HALF
              type: DT_FLOAT
              type: DT_DOUBLE
              type: DT_UINT8
              type: DT_INT8
              type: DT_INT16
              type: DT_INT32
              type: DT_INT64
              type: DT_UINT16
              type: DT_UINT32
              type: DT_UINT64
              type: DT_COMPLEX64
              type: DT_QUINT8
              type: DT_QINT8
              type: DT_QINT32
              type: DT_STRING
              type: DT_BOOL
              type: DT_COMPLEX128
            }
          }
        }
        attr {
          name: "incompatible_shape_error"
          type: "bool"
          default_value {
            b: true
          }
        }
        is_commutative: true
      }
      op {
        name: "ExpandDims"
        input_arg {
          name: "input"
          type_attr: "T"
        }
        input_arg {
          name: "dim"
          type_attr: "Tdim"
        }
        output_arg {
          name: "output"
          type_attr: "T"
        }
        attr {
          name: "T"
          type: "type"
        }
        attr {
          name: "Tdim"
          type: "type"
          default_value {
            type: DT_INT32
          }
          allowed_values {
            list {
              type: DT_INT32
              type: DT_INT64
            }
          }
        }
      }
      op {
        name: "GatherNd"
        input_arg {
          name: "params"
          type_attr: "Tparams"
        }
        input_arg {
          name: "indices"
          type_attr: "Tindices"
        }
        output_arg {
          name: "output"
          type_attr: "Tparams"
        }
        attr {
          name: "Tparams"
          type: "type"
        }
        attr {
          name: "Tindices"
          type: "type"
          allowed_values {
            list {
              type: DT_INT32
              type: DT_INT64
            }
          }
        }
      }
      op {
        name: "GatherV2"
        input_arg {
          name: "params"
          type_attr: "Tparams"
        }
        input_arg {
          name: "indices"
          type_attr: "Tindices"
        }
        input_arg {
          name: "axis"
          type_attr: "Taxis"
        }
        output_arg {
          name: "output"
          type_attr: "Tparams"
        }
        attr {
          name: "batch_dims"
          type: "int"
          default_value {
            i: 0
          }
        }
        attr {
          name: "Tparams"
          type: "type"
        }
        attr {
          name: "Tindices"
          type: "type"
          allowed_values {
            list {
              type: DT_INT32
              type: DT_INT64
            }
          }
        }
        attr {
          name: "Taxis"
          type: "type"
          allowed_values {
            list {
              type: DT_INT32
              type: DT_INT64
            }
          }
        }
      }
      op {
        name: "GreaterEqual"
        input_arg {
          name: "x"
          type_attr: "T"
        }
        input_arg {
          name: "y"
          type_attr: "T"
        }
        output_arg {
          name: "z"
          type: DT_BOOL
        }
        attr {
          name: "T"
          type: "type"
          allowed_values {
            list {
              type: DT_FLOAT
              type: DT_DOUBLE
              type: DT_INT32
              type: DT_UINT8
              type: DT_INT16
              type: DT_INT8
              type: DT_INT64
              type: DT_BFLOAT16
              type: DT_UINT16
              type: DT_HALF
              type: DT_UINT32
              type: DT_UINT64
            }
          }
        }
      }
      op {
        name: "HashTableV2"
        output_arg {
          name: "table_handle"
          type: DT_RESOURCE
        }
        attr {
          name: "container"
          type: "string"
          default_value {
            s: ""
          }
        }
        attr {
          name: "shared_name"
          type: "string"
          default_value {
            s: ""
          }
        }
        attr {
          name: "use_node_name_sharing"
          type: "bool"
          default_value {
            b: false
          }
        }
        attr {
          name: "key_dtype"
          type: "type"
        }
        attr {
          name: "value_dtype"
          type: "type"
        }
        is_stateful: true
      }
      op {
        name: "HistogramSummary"
        input_arg {
          name: "tag"
          type: DT_STRING
        }
        input_arg {
          name: "values"
          type_attr: "T"
        }
        output_arg {
          name: "summary"
          type: DT_STRING
        }
        attr {
          name: "T"
          type: "type"
          default_value {
            type: DT_FLOAT
          }
          allowed_values {
            list {
              type: DT_FLOAT
              type: DT_DOUBLE
              type: DT_INT32
              type: DT_UINT8
              type: DT_INT16
              type: DT_INT8
              type: DT_INT64
              type: DT_BFLOAT16
              type: DT_UINT16
              type: DT_HALF
              type: DT_UINT32
              type: DT_UINT64
            }
          }
        }
      }
      op {
        name: "Identity"
        input_arg {
          name: "input"
          type_attr: "T"
        }
        output_arg {
          name: "output"
          type_attr: "T"
        }
        attr {
          name: "T"
          type: "type"
        }
      }
      op {
        name: "LessEqual"
        input_arg {
          name: "x"
          type_attr: "T"
        }
        input_arg {
          name: "y"
          type_attr: "T"
        }
        output_arg {
          name: "z"
          type: DT_BOOL
        }
        attr {
          name: "T"
          type: "type"
          allowed_values {
            list {
              type: DT_FLOAT
              type: DT_DOUBLE
              type: DT_INT32
              type: DT_UINT8
              type: DT_INT16
              type: DT_INT8
              type: DT_INT64
              type: DT_BFLOAT16
              type: DT_UINT16
              type: DT_HALF
              type: DT_UINT32
              type: DT_UINT64
            }
          }
        }
      }
      op {
        name: "LookupTableFindV2"
        input_arg {
          name: "table_handle"
          type: DT_RESOURCE
        }
        input_arg {
          name: "keys"
          type_attr: "Tin"
        }
        input_arg {
          name: "default_value"
          type_attr: "Tout"
        }
        output_arg {
          name: "values"
          type_attr: "Tout"
        }
        attr {
          name: "Tin"
          type: "type"
        }
        attr {
          name: "Tout"
          type: "type"
        }
        is_stateful: true
      }
      op {
        name: "LookupTableImportV2"
        input_arg {
          name: "table_handle"
          type: DT_RESOURCE
        }
        input_arg {
          name: "keys"
          type_attr: "Tin"
        }
        input_arg {
          name: "values"
          type_attr: "Tout"
        }
        attr {
          name: "Tin"
          type: "type"
        }
        attr {
          name: "Tout"
          type: "type"
        }
        is_stateful: true
      }
      op {
        name: "MatMul"
        input_arg {
          name: "a"
          type_attr: "T"
        }
        input_arg {
          name: "b"
          type_attr: "T"
        }
        output_arg {
          name: "product"
          type_attr: "T"
        }
        attr {
          name: "transpose_a"
          type: "bool"
          default_value {
            b: false
          }
        }
        attr {
          name: "transpose_b"
          type: "bool"
          default_value {
            b: false
          }
        }
        attr {
          name: "T"
          type: "type"
          allowed_values {
            list {
              type: DT_BFLOAT16
              type: DT_HALF
              type: DT_FLOAT
              type: DT_DOUBLE
              type: DT_INT32
              type: DT_INT64
              type: DT_COMPLEX64
              type: DT_COMPLEX128
            }
          }
        }
      }
      op {
        name: "Merge"
        input_arg {
          name: "inputs"
          type_attr: "T"
          number_attr: "N"
        }
        output_arg {
          name: "output"
          type_attr: "T"
        }
        output_arg {
          name: "value_index"
          type: DT_INT32
        }
        attr {
          name: "T"
          type: "type"
        }
        attr {
          name: "N"
          type: "int"
          has_minimum: true
          minimum: 1
        }
      }
      op {
        name: "MergeV2Checkpoints"
        input_arg {
          name: "checkpoint_prefixes"
          type: DT_STRING
        }
        input_arg {
          name: "destination_prefix"
          type: DT_STRING
        }
        attr {
          name: "delete_old_dirs"
          type: "bool"
          default_value {
            b: true
          }
        }
        is_stateful: true
      }
      op {
        name: "Mul"
        input_arg {
          name: "x"
          type_attr: "T"
        }
        input_arg {
          name: "y"
          type_attr: "T"
        }
        output_arg {
          name: "z"
          type_attr: "T"
        }
        attr {
          name: "T"
          type: "type"
          allowed_values {
            list {
              type: DT_BFLOAT16
              type: DT_HALF
              type: DT_FLOAT
              type: DT_DOUBLE
              type: DT_UINT8
              type: DT_INT8
              type: DT_UINT16
              type: DT_INT16
              type: DT_INT32
              type: DT_INT64
              type: DT_COMPLEX64
              type: DT_COMPLEX128
            }
          }
        }
        is_commutative: true
      }
      op {
        name: "NoOp"
      }
      op {
        name: "NotEqual"
        input_arg {
          name: "x"
          type_attr: "T"
        }
        input_arg {
          name: "y"
          type_attr: "T"
        }
        output_arg {
          name: "z"
          type: DT_BOOL
        }
        attr {
          name: "T"
          type: "type"
          allowed_values {
            list {
              type: DT_BFLOAT16
              type: DT_HALF
              type: DT_FLOAT
              type: DT_DOUBLE
              type: DT_UINT8
              type: DT_INT8
              type: DT_INT16
              type: DT_INT32
              type: DT_INT64
              type: DT_UINT16
              type: DT_UINT32
              type: DT_UINT64
              type: DT_COMPLEX64
              type: DT_QUINT8
              type: DT_QINT8
              type: DT_QINT32
              type: DT_STRING
              type: DT_BOOL
              type: DT_COMPLEX128
            }
          }
        }
        attr {
          name: "incompatible_shape_error"
          type: "bool"
          default_value {
            b: true
          }
        }
        is_commutative: true
      }
      op {
        name: "OneHot"
        input_arg {
          name: "indices"
          type_attr: "TI"
        }
        input_arg {
          name: "depth"
          type: DT_INT32
        }
        input_arg {
          name: "on_value"
          type_attr: "T"
        }
        input_arg {
          name: "off_value"
          type_attr: "T"
        }
        output_arg {
          name: "output"
          type_attr: "T"
        }
        attr {
          name: "axis"
          type: "int"
          default_value {
            i: -1
          }
        }
        attr {
          name: "T"
          type: "type"
        }
        attr {
          name: "TI"
          type: "type"
          default_value {
            type: DT_INT64
          }
          allowed_values {
            list {
              type: DT_UINT8
              type: DT_INT32
              type: DT_INT64
            }
          }
        }
      }
      op {
        name: "Pack"
        input_arg {
          name: "values"
          type_attr: "T"
          number_attr: "N"
        }
        output_arg {
          name: "output"
          type_attr: "T"
        }
        attr {
          name: "N"
          type: "int"
          has_minimum: true
          minimum: 1
        }
        attr {
          name: "T"
          type: "type"
        }
        attr {
          name: "axis"
          type: "int"
          default_value {
            i: 0
          }
        }
      }
      op {
        name: "Placeholder"
        output_arg {
          name: "output"
          type_attr: "dtype"
        }
        attr {
          name: "dtype"
          type: "type"
        }
        attr {
          name: "shape"
          type: "shape"
          default_value {
            shape {
              unknown_rank: true
            }
          }
        }
      }
      op {
        name: "PlaceholderWithDefault"
        input_arg {
          name: "input"
          type_attr: "dtype"
        }
        output_arg {
          name: "output"
          type_attr: "dtype"
        }
        attr {
          name: "dtype"
          type: "type"
        }
        attr {
          name: "shape"
          type: "shape"
        }
      }
      op {
        name: "Prod"
        input_arg {
          name: "input"
          type_attr: "T"
        }
        input_arg {
          name: "reduction_indices"
          type_attr: "Tidx"
        }
        output_arg {
          name: "output"
          type_attr: "T"
        }
        attr {
          name: "keep_dims"
          type: "bool"
          default_value {
            b: false
          }
        }
        attr {
          name: "T"
          type: "type"
          allowed_values {
            list {
              type: DT_FLOAT
              type: DT_DOUBLE
              type: DT_INT32
              type: DT_UINT8
              type: DT_INT16
              type: DT_INT8
              type: DT_COMPLEX64
              type: DT_INT64
              type: DT_QINT8
              type: DT_QUINT8
              type: DT_QINT32
              type: DT_BFLOAT16
              type: DT_UINT16
              type: DT_COMPLEX128
              type: DT_HALF
              type: DT_UINT32
              type: DT_UINT64
            }
          }
        }
        attr {
          name: "Tidx"
          type: "type"
          default_value {
            type: DT_INT32
          }
          allowed_values {
            list {
              type: DT_INT32
              type: DT_INT64
            }
          }
        }
      }
      op {
        name: "RandomUniform"
        input_arg {
          name: "shape"
          type_attr: "T"
        }
        output_arg {
          name: "output"
          type_attr: "dtype"
        }
        attr {
          name: "seed"
          type: "int"
          default_value {
            i: 0
          }
        }
        attr {
          name: "seed2"
          type: "int"
          default_value {
            i: 0
          }
        }
        attr {
          name: "dtype"
          type: "type"
          allowed_values {
            list {
              type: DT_HALF
              type: DT_BFLOAT16
              type: DT_FLOAT
              type: DT_DOUBLE
            }
          }
        }
        attr {
          name: "T"
          type: "type"
          allowed_values {
            list {
              type: DT_INT32
              type: DT_INT64
            }
          }
        }
        is_stateful: true
      }
      op {
        name: "Range"
        input_arg {
          name: "start"
          type_attr: "Tidx"
        }
        input_arg {
          name: "limit"
          type_attr: "Tidx"
        }
        input_arg {
          name: "delta"
          type_attr: "Tidx"
        }
        output_arg {
          name: "output"
          type_attr: "Tidx"
        }
        attr {
          name: "Tidx"
          type: "type"
          default_value {
            type: DT_INT32
          }
          allowed_values {
            list {
              type: DT_BFLOAT16
              type: DT_HALF
              type: DT_FLOAT
              type: DT_DOUBLE
              type: DT_INT32
              type: DT_INT64
            }
          }
        }
      }
      op {
        name: "ReadVariableOp"
        input_arg {
          name: "resource"
          type: DT_RESOURCE
        }
        output_arg {
          name: "value"
          type_attr: "dtype"
        }
        attr {
          name: "dtype"
          type: "type"
        }
        is_stateful: true
      }
      op {
        name: "RealDiv"
        input_arg {
          name: "x"
          type_attr: "T"
        }
        input_arg {
          name: "y"
          type_attr: "T"
        }
        output_arg {
          name: "z"
          type_attr: "T"
        }
        attr {
          name: "T"
          type: "type"
          allowed_values {
            list {
              type: DT_BFLOAT16
              type: DT_HALF
              type: DT_FLOAT
              type: DT_DOUBLE
              type: DT_UINT8
              type: DT_INT8
              type: DT_UINT16
              type: DT_INT16
              type: DT_INT32
              type: DT_INT64
              type: DT_COMPLEX64
              type: DT_COMPLEX128
            }
          }
        }
      }
      op {
        name: "Relu"
        input_arg {
          name: "features"
          type_attr: "T"
        }
        output_arg {
          name: "activations"
          type_attr: "T"
        }
        attr {
          name: "T"
          type: "type"
          allowed_values {
            list {
              type: DT_FLOAT
              type: DT_DOUBLE
              type: DT_INT32
              type: DT_UINT8
              type: DT_INT16
              type: DT_INT8
              type: DT_INT64
              type: DT_BFLOAT16
              type: DT_UINT16
              type: DT_HALF
              type: DT_UINT32
              type: DT_UINT64
              type: DT_QINT8
            }
          }
        }
      }
      op {
        name: "Reshape"
        input_arg {
          name: "tensor"
          type_attr: "T"
        }
        input_arg {
          name: "shape"
          type_attr: "Tshape"
        }
        output_arg {
          name: "output"
          type_attr: "T"
        }
        attr {
          name: "T"
          type: "type"
        }
        attr {
          name: "Tshape"
          type: "type"
          default_value {
            type: DT_INT32
          }
          allowed_values {
            list {
              type: DT_INT32
              type: DT_INT64
            }
          }
        }
      }
      op {
        name: "ResourceGather"
        input_arg {
          name: "resource"
          type: DT_RESOURCE
        }
        input_arg {
          name: "indices"
          type_attr: "Tindices"
        }
        output_arg {
          name: "output"
          type_attr: "dtype"
        }
        attr {
          name: "batch_dims"
          type: "int"
          default_value {
            i: 0
          }
        }
        attr {
          name: "validate_indices"
          type: "bool"
          default_value {
            b: true
          }
        }
        attr {
          name: "dtype"
          type: "type"
        }
        attr {
          name: "Tindices"
          type: "type"
          allowed_values {
            list {
              type: DT_INT32
              type: DT_INT64
            }
          }
        }
        is_stateful: true
      }
      op {
        name: "RestoreV2"
        input_arg {
          name: "prefix"
          type: DT_STRING
        }
        input_arg {
          name: "tensor_names"
          type: DT_STRING
        }
        input_arg {
          name: "shape_and_slices"
          type: DT_STRING
        }
        output_arg {
          name: "tensors"
          type_list_attr: "dtypes"
        }
        attr {
          name: "dtypes"
          type: "list(type)"
          has_minimum: true
          minimum: 1
        }
        is_stateful: true
      }
      op {
        name: "SaveV2"
        input_arg {
          name: "prefix"
          type: DT_STRING
        }
        input_arg {
          name: "tensor_names"
          type: DT_STRING
        }
        input_arg {
          name: "shape_and_slices"
          type: DT_STRING
        }
        input_arg {
          name: "tensors"
          type_list_attr: "dtypes"
        }
        attr {
          name: "dtypes"
          type: "list(type)"
          has_minimum: true
          minimum: 1
        }
        is_stateful: true
      }
      op {
        name: "ScalarSummary"
        input_arg {
          name: "tags"
          type: DT_STRING
        }
        input_arg {
          name: "values"
          type_attr: "T"
        }
        output_arg {
          name: "summary"
          type: DT_STRING
        }
        attr {
          name: "T"
          type: "type"
          allowed_values {
            list {
              type: DT_FLOAT
              type: DT_DOUBLE
              type: DT_INT32
              type: DT_UINT8
              type: DT_INT16
              type: DT_INT8
              type: DT_INT64
              type: DT_BFLOAT16
              type: DT_UINT16
              type: DT_HALF
              type: DT_UINT32
              type: DT_UINT64
            }
          }
        }
      }
      op {
        name: "Select"
        input_arg {
          name: "condition"
          type: DT_BOOL
        }
        input_arg {
          name: "t"
          type_attr: "T"
        }
        input_arg {
          name: "e"
          type_attr: "T"
        }
        output_arg {
          name: "output"
          type_attr: "T"
        }
        attr {
          name: "T"
          type: "type"
        }
      }
      op {
        name: "Shape"
        input_arg {
          name: "input"
          type_attr: "T"
        }
        output_arg {
          name: "output"
          type_attr: "out_type"
        }
        attr {
          name: "T"
          type: "type"
        }
        attr {
          name: "out_type"
          type: "type"
          default_value {
            type: DT_INT32
          }
          allowed_values {
            list {
              type: DT_INT32
              type: DT_INT64
            }
          }
        }
      }
      op {
        name: "ShardedFilename"
        input_arg {
          name: "basename"
          type: DT_STRING
        }
        input_arg {
          name: "shard"
          type: DT_INT32
        }
        input_arg {
          name: "num_shards"
          type: DT_INT32
        }
        output_arg {
          name: "filename"
          type: DT_STRING
        }
      }
      op {
        name: "Sigmoid"
        input_arg {
          name: "x"
          type_attr: "T"
        }
        output_arg {
          name: "y"
          type_attr: "T"
        }
        attr {
          name: "T"
          type: "type"
          allowed_values {
            list {
              type: DT_BFLOAT16
              type: DT_HALF
              type: DT_FLOAT
              type: DT_DOUBLE
              type: DT_COMPLEX64
              type: DT_COMPLEX128
            }
          }
        }
      }
      op {
        name: "Size"
        input_arg {
          name: "input"
          type_attr: "T"
        }
        output_arg {
          name: "output"
          type_attr: "out_type"
        }
        attr {
          name: "T"
          type: "type"
        }
        attr {
          name: "out_type"
          type: "type"
          default_value {
            type: DT_INT32
          }
          allowed_values {
            list {
              type: DT_INT32
              type: DT_INT64
            }
          }
        }
      }
      op {
        name: "Slice"
        input_arg {
          name: "input"
          type_attr: "T"
        }
        input_arg {
          name: "begin"
          type_attr: "Index"
        }
        input_arg {
          name: "size"
          type_attr: "Index"
        }
        output_arg {
          name: "output"
          type_attr: "T"
        }
        attr {
          name: "T"
          type: "type"
        }
        attr {
          name: "Index"
          type: "type"
          allowed_values {
            list {
              type: DT_INT32
              type: DT_INT64
            }
          }
        }
      }
      op {
        name: "Softmax"
        input_arg {
          name: "logits"
          type_attr: "T"
        }
        output_arg {
          name: "softmax"
          type_attr: "T"
        }
        attr {
          name: "T"
          type: "type"
          allowed_values {
            list {
              type: DT_HALF
              type: DT_BFLOAT16
              type: DT_FLOAT
              type: DT_DOUBLE
            }
          }
        }
      }
      op {
        name: "SparseCross"
        input_arg {
          name: "indices"
          type: DT_INT64
          number_attr: "N"
        }
        input_arg {
          name: "values"
          type_list_attr: "sparse_types"
        }
        input_arg {
          name: "shapes"
          type: DT_INT64
          number_attr: "N"
        }
        input_arg {
          name: "dense_inputs"
          type_list_attr: "dense_types"
        }
        output_arg {
          name: "output_indices"
          type: DT_INT64
        }
        output_arg {
          name: "output_values"
          type_attr: "out_type"
        }
        output_arg {
          name: "output_shape"
          type: DT_INT64
        }
        attr {
          name: "N"
          type: "int"
          has_minimum: true
        }
        attr {
          name: "hashed_output"
          type: "bool"
        }
        attr {
          name: "num_buckets"
          type: "int"
          has_minimum: true
        }
        attr {
          name: "hash_key"
          type: "int"
        }
        attr {
          name: "sparse_types"
          type: "list(type)"
          has_minimum: true
          allowed_values {
            list {
              type: DT_INT64
              type: DT_STRING
            }
          }
        }
        attr {
          name: "dense_types"
          type: "list(type)"
          has_minimum: true
          allowed_values {
            list {
              type: DT_INT64
              type: DT_STRING
            }
          }
        }
        attr {
          name: "out_type"
          type: "type"
          allowed_values {
            list {
              type: DT_INT64
              type: DT_STRING
            }
          }
        }
        attr {
          name: "internal_type"
          type: "type"
          allowed_values {
            list {
              type: DT_INT64
              type: DT_STRING
            }
          }
        }
      }
      op {
        name: "SparseFillEmptyRows"
        input_arg {
          name: "indices"
          type: DT_INT64
        }
        input_arg {
          name: "values"
          type_attr: "T"
        }
        input_arg {
          name: "dense_shape"
          type: DT_INT64
        }
        input_arg {
          name: "default_value"
          type_attr: "T"
        }
        output_arg {
          name: "output_indices"
          type: DT_INT64
        }
        output_arg {
          name: "output_values"
          type_attr: "T"
        }
        output_arg {
          name: "empty_row_indicator"
          type: DT_BOOL
        }
        output_arg {
          name: "reverse_index_map"
          type: DT_INT64
        }
        attr {
          name: "T"
          type: "type"
        }
      }
      op {
        name: "SparseReshape"
        input_arg {
          name: "input_indices"
          type: DT_INT64
        }
        input_arg {
          name: "input_shape"
          type: DT_INT64
        }
        input_arg {
          name: "new_shape"
          type: DT_INT64
        }
        output_arg {
          name: "output_indices"
          type: DT_INT64
        }
        output_arg {
          name: "output_shape"
          type: DT_INT64
        }
      }
      op {
        name: "SparseSegmentSum"
        input_arg {
          name: "data"
          type_attr: "T"
        }
        input_arg {
          name: "indices"
          type_attr: "Tidx"
        }
        input_arg {
          name: "segment_ids"
          type_attr: "Tsegmentids"
        }
        output_arg {
          name: "output"
          type_attr: "T"
        }
        attr {
          name: "T"
          type: "type"
          allowed_values {
            list {
              type: DT_FLOAT
              type: DT_DOUBLE
              type: DT_INT32
              type: DT_UINT8
              type: DT_INT16
              type: DT_INT8
              type: DT_INT64
              type: DT_BFLOAT16
              type: DT_UINT16
              type: DT_HALF
              type: DT_UINT32
              type: DT_UINT64
            }
          }
        }
        attr {
          name: "Tidx"
          type: "type"
          default_value {
            type: DT_INT32
          }
          allowed_values {
            list {
              type: DT_INT32
              type: DT_INT64
            }
          }
        }
        attr {
          name: "Tsegmentids"
          type: "type"
          default_value {
            type: DT_INT32
          }
          allowed_values {
            list {
              type: DT_INT32
              type: DT_INT64
            }
          }
        }
      }
      op {
        name: "SparseToDense"
        input_arg {
          name: "sparse_indices"
          type_attr: "Tindices"
        }
        input_arg {
          name: "output_shape"
          type_attr: "Tindices"
        }
        input_arg {
          name: "sparse_values"
          type_attr: "T"
        }
        input_arg {
          name: "default_value"
          type_attr: "T"
        }
        output_arg {
          name: "dense"
          type_attr: "T"
        }
        attr {
          name: "validate_indices"
          type: "bool"
          default_value {
            b: true
          }
        }
        attr {
          name: "T"
          type: "type"
        }
        attr {
          name: "Tindices"
          type: "type"
          allowed_values {
            list {
              type: DT_INT32
              type: DT_INT64
            }
          }
        }
      }
      op {
        name: "StaticRegexFullMatch"
        input_arg {
          name: "input"
          type: DT_STRING
        }
        output_arg {
          name: "output"
          type: DT_BOOL
        }
        attr {
          name: "pattern"
          type: "string"
        }
      }
      op {
        name: "StridedSlice"
        input_arg {
          name: "input"
          type_attr: "T"
        }
        input_arg {
          name: "begin"
          type_attr: "Index"
        }
        input_arg {
          name: "end"
          type_attr: "Index"
        }
        input_arg {
          name: "strides"
          type_attr: "Index"
        }
        output_arg {
          name: "output"
          type_attr: "T"
        }
        attr {
          name: "T"
          type: "type"
        }
        attr {
          name: "Index"
          type: "type"
          allowed_values {
            list {
              type: DT_INT32
              type: DT_INT64
            }
          }
        }
        attr {
          name: "begin_mask"
          type: "int"
          default_value {
            i: 0
          }
        }
        attr {
          name: "end_mask"
          type: "int"
          default_value {
            i: 0
          }
        }
        attr {
          name: "ellipsis_mask"
          type: "int"
          default_value {
            i: 0
          }
        }
        attr {
          name: "new_axis_mask"
          type: "int"
          default_value {
            i: 0
          }
        }
        attr {
          name: "shrink_axis_mask"
          type: "int"
          default_value {
            i: 0
          }
        }
      }
      op {
        name: "StringJoin"
        input_arg {
          name: "inputs"
          type: DT_STRING
          number_attr: "N"
        }
        output_arg {
          name: "output"
          type: DT_STRING
        }
        attr {
          name: "N"
          type: "int"
          has_minimum: true
          minimum: 1
        }
        attr {
          name: "separator"
          type: "string"
          default_value {
            s: ""
          }
        }
      }
      op {
        name: "Sub"
        input_arg {
          name: "x"
          type_attr: "T"
        }
        input_arg {
          name: "y"
          type_attr: "T"
        }
        output_arg {
          name: "z"
          type_attr: "T"
        }
        attr {
          name: "T"
          type: "type"
          allowed_values {
            list {
              type: DT_BFLOAT16
              type: DT_HALF
              type: DT_FLOAT
              type: DT_DOUBLE
              type: DT_UINT8
              type: DT_INT8
              type: DT_UINT16
              type: DT_INT16
              type: DT_INT32
              type: DT_INT64
              type: DT_COMPLEX64
              type: DT_COMPLEX128
              type: DT_UINT32
            }
          }
        }
      }
      op {
        name: "Sum"
        input_arg {
          name: "input"
          type_attr: "T"
        }
        input_arg {
          name: "reduction_indices"
          type_attr: "Tidx"
        }
        output_arg {
          name: "output"
          type_attr: "T"
        }
        attr {
          name: "keep_dims"
          type: "bool"
          default_value {
            b: false
          }
        }
        attr {
          name: "T"
          type: "type"
          allowed_values {
            list {
              type: DT_FLOAT
              type: DT_DOUBLE
              type: DT_INT32
              type: DT_UINT8
              type: DT_INT16
              type: DT_INT8
              type: DT_COMPLEX64
              type: DT_INT64
              type: DT_QINT8
              type: DT_QUINT8
              type: DT_QINT32
              type: DT_BFLOAT16
              type: DT_UINT16
              type: DT_COMPLEX128
              type: DT_HALF
              type: DT_UINT32
              type: DT_UINT64
            }
          }
        }
        attr {
          name: "Tidx"
          type: "type"
          default_value {
            type: DT_INT32
          }
          allowed_values {
            list {
              type: DT_INT32
              type: DT_INT64
            }
          }
        }
      }
      op {
        name: "Switch"
        input_arg {
          name: "data"
          type_attr: "T"
        }
        input_arg {
          name: "pred"
          type: DT_BOOL
        }
        output_arg {
          name: "output_false"
          type_attr: "T"
        }
        output_arg {
          name: "output_true"
          type_attr: "T"
        }
        attr {
          name: "T"
          type: "type"
        }
      }
      op {
        name: "Tile"
        input_arg {
          name: "input"
          type_attr: "T"
        }
        input_arg {
          name: "multiples"
          type_attr: "Tmultiples"
        }
        output_arg {
          name: "output"
          type_attr: "T"
        }
        attr {
          name: "T"
          type: "type"
        }
        attr {
          name: "Tmultiples"
          type: "type"
          default_value {
            type: DT_INT32
          }
          allowed_values {
            list {
              type: DT_INT32
              type: DT_INT64
            }
          }
        }
      }
      op {
        name: "Transpose"
        input_arg {
          name: "x"
          type_attr: "T"
        }
        input_arg {
          name: "perm"
          type_attr: "Tperm"
        }
        output_arg {
          name: "y"
          type_attr: "T"
        }
        attr {
          name: "T"
          type: "type"
        }
        attr {
          name: "Tperm"
          type: "type"
          default_value {
            type: DT_INT32
          }
          allowed_values {
            list {
              type: DT_INT32
              type: DT_INT64
            }
          }
        }
      }
      op {
        name: "Unique"
        input_arg {
          name: "x"
          type_attr: "T"
        }
        output_arg {
          name: "y"
          type_attr: "T"
        }
        output_arg {
          name: "idx"
          type_attr: "out_idx"
        }
        attr {
          name: "T"
          type: "type"
        }
        attr {
          name: "out_idx"
          type: "type"
          default_value {
            type: DT_INT32
          }
          allowed_values {
            list {
              type: DT_INT32
              type: DT_INT64
            }
          }
        }
      }
      op {
        name: "VarHandleOp"
        output_arg {
          name: "resource"
          type: DT_RESOURCE
        }
        attr {
          name: "container"
          type: "string"
          default_value {
            s: ""
          }
        }
        attr {
          name: "shared_name"
          type: "string"
          default_value {
            s: ""
          }
        }
        attr {
          name: "dtype"
          type: "type"
        }
        attr {
          name: "shape"
          type: "shape"
        }
        attr {
          name: "allowed_devices"
          type: "list(string)"
          default_value {
            list {
            }
          }
        }
        is_stateful: true
      }
      op {
        name: "VarIsInitializedOp"
        input_arg {
          name: "resource"
          type: DT_RESOURCE
        }
        output_arg {
          name: "is_initialized"
          type: DT_BOOL
        }
        is_stateful: true
      }
      op {
        name: "VariableV2"
        output_arg {
          name: "ref"
          type_attr: "dtype"
          is_ref: true
        }
        attr {
          name: "shape"
          type: "shape"
        }
        attr {
          name: "dtype"
          type: "type"
        }
        attr {
          name: "container"
          type: "string"
          default_value {
            s: ""
          }
        }
        attr {
          name: "shared_name"
          type: "string"
          default_value {
            s: ""
          }
        }
        is_stateful: true
      }
      op {
        name: "Where"
        input_arg {
          name: "input"
          type_attr: "T"
        }
        output_arg {
          name: "index"
          type: DT_INT64
        }
        attr {
          name: "T"
          type: "type"
          default_value {
            type: DT_BOOL
          }
          allowed_values {
            list {
              type: DT_FLOAT
              type: DT_DOUBLE
              type: DT_INT32
              type: DT_UINT8
              type: DT_INT16
              type: DT_INT8
              type: DT_COMPLEX64
              type: DT_INT64
              type: DT_QINT8
              type: DT_QUINT8
              type: DT_QINT32
              type: DT_BFLOAT16
              type: DT_UINT16
              type: DT_COMPLEX128
              type: DT_HALF
              type: DT_UINT32
              type: DT_UINT64
              type: DT_BOOL
            }
          }
        }
      }
      op {
        name: "ZerosLike"
        input_arg {
          name: "x"
          type_attr: "T"
        }
        output_arg {
          name: "y"
          type_attr: "T"
        }
        attr {
          name: "T"
          type: "type"
        }
      }
    }
    tags: "serve"
    tensorflow_version: "2.3.0"
    tensorflow_git_version: "v2.3.0-rc2-23-gb36436b087"
    stripped_default_attrs: true
  }
  graph_def {
    node {
      name: "global_step/Initializer/zeros"
      op: "Const"
      attr {
        key: "_class"
        value {
          list {
            s: "loc:@global_step"
          }
        }
      }
      attr {
        key: "_output_shapes"
        value {
          list {
            shape {
            }
          }
        }
      }
      attr {
        key: "dtype"
        value {
          type: DT_INT64
        }
      }
      attr {
        key: "value"
        value {
          tensor {
            dtype: DT_INT64
            tensor_shape {
            }
            int64_val: 0
          }
        }
      }
    }
    node {
      name: "global_step"
      op: "VariableV2"
      attr {
        key: "_class"
        value {
          list {
            s: "loc:@global_step"
          }
        }
      }
      attr {
        key: "_output_shapes"
        value {
          list {
            shape {
            }
          }
        }
      }
      attr {
        key: "dtype"
        value {
          type: DT_INT64
        }
      }
      attr {
        key: "shape"
        value {
          shape {
          }
        }
      }
    }
    node {
      name: "global_step/Assign"
      op: "Assign"
      input: "global_step"
      input: "global_step/Initializer/zeros"
      attr {
        key: "T"
        value {
          type: DT_INT64
        }
      }
      attr {
        key: "_class"
        value {
          list {
            s: "loc:@global_step"
          }
        }
      }
      attr {
        key: "_output_shapes"
        value {
          list {
            shape {
            }
          }
        }
      }
    }
    node {
      name: "global_step/read"
      op: "Identity"
      input: "global_step"
      attr {
        key: "T"
        value {
          type: DT_INT64
        }
      }
      attr {
        key: "_class"
        value {
          list {
            s: "loc:@global_step"
          }
        }
      }
      attr {
        key: "_output_shapes"
        value {
          list {
            shape {
            }
          }
        }
      }
    }
    node {
      name: "age"
      op: "Placeholder"
      attr {
        key: "_output_shapes"
        value {
          list {
            shape {
              dim {
                size: -1
              }
            }
          }
        }
      }
      attr {
        key: "dtype"
        value {
          type: DT_INT32
        }
      }
      attr {
        key: "shape"
        value {
          shape {
            dim {
              size: -1
            }
          }
        }
      }
    }
    node {
      name: "workclass"
      op: "Placeholder"
      attr {
        key: "_output_shapes"
        value {
          list {
            shape {
              dim {
                size: -1
              }
            }
          }
        }
      }
      attr {
        key: "dtype"
        value {
          type: DT_STRING
        }
      }
      attr {
        key: "shape"
        value {
          shape {
            dim {
              size: -1
            }
          }
        }
      }
    }
    node {
      name: "education"
      op: "Placeholder"
      attr {
        key: "_output_shapes"
        value {
          list {
            shape {
              dim {
                size: -1
              }
            }
          }
        }
      }
      attr {
        key: "dtype"
        value {
          type: DT_STRING
        }
      }
      attr {
        key: "shape"
        value {
          shape {
            dim {
              size: -1
            }
          }
        }
      }
    }
    node {
      name: "education-num"
      op: "Placeholder"
      attr {
        key: "_output_shapes"
        value {
          list {
            shape {
              dim {
                size: -1
              }
            }
          }
        }
      }
      attr {
        key: "dtype"
        value {
          type: DT_INT32
        }
      }
      attr {
        key: "shape"
        value {
          shape {
            dim {
              size: -1
            }
          }
        }
      }
    }
    node {
      name: "marital-status"
      op: "Placeholder"
      attr {
        key: "_output_shapes"
        value {
          list {
            shape {
              dim {
                size: -1
              }
            }
          }
        }
      }
      attr {
        key: "dtype"
        value {
          type: DT_STRING
        }
      }
      attr {
        key: "shape"
        value {
          shape {
            dim {
              size: -1
            }
          }
        }
      }
    }
    node {
      name: "occupation"
      op: "Placeholder"
      attr {
        key: "_output_shapes"
        value {
          list {
            shape {
              dim {
                size: -1
              }
            }
          }
        }
      }
      attr {
        key: "dtype"
        value {
          type: DT_STRING
        }
      }
      attr {
        key: "shape"
        value {
          shape {
            dim {
              size: -1
            }
          }
        }
      }
    }
    node {
      name: "relationship"
      op: "Placeholder"
      attr {
        key: "_output_shapes"
        value {
          list {
            shape {
              dim {
                size: -1
              }
            }
          }
        }
      }
      attr {
        key: "dtype"
        value {
          type: DT_STRING
        }
      }
      attr {
        key: "shape"
        value {
          shape {
            dim {
              size: -1
            }
          }
        }
      }
    }
    node {
      name: "race"
      op: "Placeholder"
      attr {
        key: "_output_shapes"
        value {
          list {
            shape {
              dim {
                size: -1
              }
            }
          }
        }
      }
      attr {
        key: "dtype"
        value {
          type: DT_STRING
        }
      }
      attr {
        key: "shape"
        value {
          shape {
            dim {
              size: -1
            }
          }
        }
      }
    }
    node {
      name: "sex"
      op: "Placeholder"
      attr {
        key: "_output_shapes"
        value {
          list {
            shape {
              dim {
                size: -1
              }
            }
          }
        }
      }
      attr {
        key: "dtype"
        value {
          type: DT_STRING
        }
      }
      attr {
        key: "shape"
        value {
          shape {
            dim {
              size: -1
            }
          }
        }
      }
    }
    node {
      name: "capital-gain"
      op: "Placeholder"
      attr {
        key: "_output_shapes"
        value {
          list {
            shape {
              dim {
                size: -1
              }
            }
          }
        }
      }
      attr {
        key: "dtype"
        value {
          type: DT_DOUBLE
        }
      }
      attr {
        key: "shape"
        value {
          shape {
            dim {
              size: -1
            }
          }
        }
      }
    }
    node {
      name: "capital-loss"
      op: "Placeholder"
      attr {
        key: "_output_shapes"
        value {
          list {
            shape {
              dim {
                size: -1
              }
            }
          }
        }
      }
      attr {
        key: "dtype"
        value {
          type: DT_INT64
        }
      }
      attr {
        key: "shape"
        value {
          shape {
            dim {
              size: -1
            }
          }
        }
      }
    }
    node {
      name: "hours-per-week"
      op: "Placeholder"
      attr {
        key: "_output_shapes"
        value {
          list {
            shape {
              dim {
                size: -1
              }
            }
          }
        }
      }
      attr {
        key: "dtype"
        value {
          type: DT_INT32
        }
      }
      attr {
        key: "shape"
        value {
          shape {
            dim {
              size: -1
            }
          }
        }
      }
    }
    node {
      name: "dnn/input_from_feature_columns/input_layer/age/ExpandDims/dim"
      op: "Const"
      attr {
        key: "_output_shapes"
        value {
          list {
            shape {
            }
          }
        }
      }
      attr {
        key: "dtype"
        value {
          type: DT_INT32
        }
      }
      attr {
        key: "value"
        value {
          tensor {
            dtype: DT_INT32
            tensor_shape {
            }
            int_val: -1
          }
        }
      }
    }
    node {
      name: "dnn/input_from_feature_columns/input_layer/age/ExpandDims"
      op: "ExpandDims"
      input: "age"
      input: "dnn/input_from_feature_columns/input_layer/age/ExpandDims/dim"
      attr {
        key: "T"
        value {
          type: DT_INT32
        }
      }
      attr {
        key: "_output_shapes"
        value {
          list {
            shape {
              dim {
                size: -1
              }
              dim {
                size: 1
              }
            }
          }
        }
      }
    }
    node {
      name: "dnn/input_from_feature_columns/input_layer/age/sub/y"
      op: "Const"
      attr {
        key: "_output_shapes"
        value {
          list {
            shape {
            }
          }
        }
      }
      attr {
        key: "dtype"
        value {
          type: DT_INT32
        }
      }
      attr {
        key: "value"
        value {
          tensor {
            dtype: DT_INT32
            tensor_shape {
            }
            int_val: 17
          }
        }
      }
    }
    node {
      name: "dnn/input_from_feature_columns/input_layer/age/sub"
      op: "Sub"
      input: "dnn/input_from_feature_columns/input_layer/age/ExpandDims"
      input: "dnn/input_from_feature_columns/input_layer/age/sub/y"
      attr {
        key: "T"
        value {
          type: DT_INT32
        }
      }
      attr {
        key: "_output_shapes"
        value {
          list {
            shape {
              dim {
                size: -1
              }
              dim {
                size: 1
              }
            }
          }
        }
      }
    }
    node {
      name: "dnn/input_from_feature_columns/input_layer/age/truediv/y"
      op: "Const"
      attr {
        key: "_output_shapes"
        value {
          list {
            shape {
            }
          }
        }
      }
      attr {
        key: "dtype"
        value {
          type: DT_INT32
        }
      }
      attr {
        key: "value"
        value {
          tensor {
            dtype: DT_INT32
            tensor_shape {
            }
            int_val: 90
          }
        }
      }
    }
    node {
      name: "dnn/input_from_feature_columns/input_layer/age/truediv/Cast"
      op: "Cast"
      input: "dnn/input_from_feature_columns/input_layer/age/sub"
      attr {
        key: "DstT"
        value {
          type: DT_DOUBLE
        }
      }
      attr {
        key: "SrcT"
        value {
          type: DT_INT32
        }
      }
      attr {
        key: "_output_shapes"
        value {
          list {
            shape {
              dim {
                size: -1
              }
              dim {
                size: 1
              }
            }
          }
        }
      }
    }
    node {
      name: "dnn/input_from_feature_columns/input_layer/age/truediv/Cast_1"
      op: "Cast"
      input: "dnn/input_from_feature_columns/input_layer/age/truediv/y"
      attr {
        key: "DstT"
        value {
          type: DT_DOUBLE
        }
      }
      attr {
        key: "SrcT"
        value {
          type: DT_INT32
        }
      }
      attr {
        key: "_output_shapes"
        value {
          list {
            shape {
            }
          }
        }
      }
    }
    node {
      name: "dnn/input_from_feature_columns/input_layer/age/truediv"
      op: "RealDiv"
      input: "dnn/input_from_feature_columns/input_layer/age/truediv/Cast"
      input: "dnn/input_from_feature_columns/input_layer/age/truediv/Cast_1"
      attr {
        key: "T"
        value {
          type: DT_DOUBLE
        }
      }
      attr {
        key: "_output_shapes"
        value {
          list {
            shape {
              dim {
                size: -1
              }
              dim {
                size: 1
              }
            }
          }
        }
      }
    }
    node {
      name: "dnn/input_from_feature_columns/input_layer/age/Cast"
      op: "Cast"
      input: "dnn/input_from_feature_columns/input_layer/age/truediv"
      attr {
        key: "DstT"
        value {
          type: DT_FLOAT
        }
      }
      attr {
        key: "SrcT"
        value {
          type: DT_DOUBLE
        }
      }
      attr {
        key: "_output_shapes"
        value {
          list {
            shape {
              dim {
                size: -1
              }
              dim {
                size: 1
              }
            }
          }
        }
      }
    }
    node {
      name: "dnn/input_from_feature_columns/input_layer/age/Shape"
      op: "Shape"
      input: "dnn/input_from_feature_columns/input_layer/age/Cast"
      attr {
        key: "T"
        value {
          type: DT_FLOAT
        }
      }
      attr {
        key: "_output_shapes"
        value {
          list {
            shape {
              dim {
                size: 2
              }
            }
          }
        }
      }
    }
    node {
      name: "dnn/input_from_feature_columns/input_layer/age/strided_slice/stack"
      op: "Const"
      attr {
        key: "_output_shapes"
        value {
          list {
            shape {
              dim {
                size: 1
              }
            }
          }
        }
      }
      attr {
        key: "dtype"
        value {
          type: DT_INT32
        }
      }
      attr {
        key: "value"
        value {
          tensor {
            dtype: DT_INT32
            tensor_shape {
              dim {
                size: 1
              }
            }
            int_val: 0
          }
        }
      }
    }
    node {
      name: "dnn/input_from_feature_columns/input_layer/age/strided_slice/stack_1"
      op: "Const"
      attr {
        key: "_output_shapes"
        value {
          list {
            shape {
              dim {
                size: 1
              }
            }
          }
        }
      }
      attr {
        key: "dtype"
        value {
          type: DT_INT32
        }
      }
      attr {
        key: "value"
        value {
          tensor {
            dtype: DT_INT32
            tensor_shape {
              dim {
                size: 1
              }
            }
            int_val: 1
          }
        }
      }
    }
    node {
      name: "dnn/input_from_feature_columns/input_layer/age/strided_slice/stack_2"
      op: "Const"
      attr {
        key: "_output_shapes"
        value {
          list {
            shape {
              dim {
                size: 1
              }
            }
          }
        }
      }
      attr {
        key: "dtype"
        value {
          type: DT_INT32
        }
      }
      attr {
        key: "value"
        value {
          tensor {
            dtype: DT_INT32
            tensor_shape {
              dim {
                size: 1
              }
            }
            int_val: 1
          }
        }
      }
    }
    node {
      name: "dnn/input_from_feature_columns/input_layer/age/strided_slice"
      op: "StridedSlice"
      input: "dnn/input_from_feature_columns/input_layer/age/Shape"
      input: "dnn/input_from_feature_columns/input_layer/age/strided_slice/stack"
      input: "dnn/input_from_feature_columns/input_layer/age/strided_slice/stack_1"
      input: "dnn/input_from_feature_columns/input_layer/age/strided_slice/stack_2"
      attr {
        key: "Index"
        value {
          type: DT_INT32
        }
      }
      attr {
        key: "T"
        value {
          type: DT_INT32
        }
      }
      attr {
        key: "_output_shapes"
        value {
          list {
            shape {
            }
          }
        }
      }
      attr {
        key: "shrink_axis_mask"
        value {
          i: 1
        }
      }
    }
    node {
      name: "dnn/input_from_feature_columns/input_layer/age/Reshape/shape/1"
      op: "Const"
      attr {
        key: "_output_shapes"
        value {
          list {
            shape {
            }
          }
        }
      }
      attr {
        key: "dtype"
        value {
          type: DT_INT32
        }
      }
      attr {
        key: "value"
        value {
          tensor {
            dtype: DT_INT32
            tensor_shape {
            }
            int_val: 1
          }
        }
      }
    }
    node {
      name: "dnn/input_from_feature_columns/input_layer/age/Reshape/shape"
      op: "Pack"
      input: "dnn/input_from_feature_columns/input_layer/age/strided_slice"
      input: "dnn/input_from_feature_columns/input_layer/age/Reshape/shape/1"
      attr {
        key: "N"
        value {
          i: 2
        }
      }
      attr {
        key: "T"
        value {
          type: DT_INT32
        }
      }
      attr {
        key: "_output_shapes"
        value {
          list {
            shape {
              dim {
                size: 2
              }
            }
          }
        }
      }
    }
    node {
      name: "dnn/input_from_feature_columns/input_layer/age/Reshape"
      op: "Reshape"
      input: "dnn/input_from_feature_columns/input_layer/age/Cast"
      input: "dnn/input_from_feature_columns/input_layer/age/Reshape/shape"
      attr {
        key: "T"
        value {
          type: DT_FLOAT
        }
      }
      attr {
        key: "_output_shapes"
        value {
          list {
            shape {
              dim {
                size: -1
              }
              dim {
                size: 1
              }
            }
          }
        }
      }
    }
    node {
      name: "dnn/input_from_feature_columns/input_layer/capital-gain/ExpandDims/dim"
      op: "Const"
      attr {
        key: "_output_shapes"
        value {
          list {
            shape {
            }
          }
        }
      }
      attr {
        key: "dtype"
        value {
          type: DT_INT32
        }
      }
      attr {
        key: "value"
        value {
          tensor {
            dtype: DT_INT32
            tensor_shape {
            }
            int_val: -1
          }
        }
      }
    }
    node {
      name: "dnn/input_from_feature_columns/input_layer/capital-gain/ExpandDims"
      op: "ExpandDims"
      input: "capital-gain"
      input: "dnn/input_from_feature_columns/input_layer/capital-gain/ExpandDims/dim"
      attr {
        key: "T"
        value {
          type: DT_DOUBLE
        }
      }
      attr {
        key: "_output_shapes"
        value {
          list {
            shape {
              dim {
                size: -1
              }
              dim {
                size: 1
              }
            }
          }
        }
      }
    }
    node {
      name: "dnn/input_from_feature_columns/input_layer/capital-gain/sub/y"
      op: "Const"
      attr {
        key: "_output_shapes"
        value {
          list {
            shape {
            }
          }
        }
      }
      attr {
        key: "dtype"
        value {
          type: DT_DOUBLE
        }
      }
      attr {
        key: "value"
        value {
          tensor {
            dtype: DT_DOUBLE
            tensor_shape {
            }
            double_val: 0.0
          }
        }
      }
    }
    node {
      name: "dnn/input_from_feature_columns/input_layer/capital-gain/sub"
      op: "Sub"
      input: "dnn/input_from_feature_columns/input_layer/capital-gain/ExpandDims"
      input: "dnn/input_from_feature_columns/input_layer/capital-gain/sub/y"
      attr {
        key: "T"
        value {
          type: DT_DOUBLE
        }
      }
      attr {
        key: "_output_shapes"
        value {
          list {
            shape {
              dim {
                size: -1
              }
              dim {
                size: 1
              }
            }
          }
        }
      }
    }
    node {
      name: "dnn/input_from_feature_columns/input_layer/capital-gain/truediv/y"
      op: "Const"
      attr {
        key: "_output_shapes"
        value {
          list {
            shape {
            }
          }
        }
      }
      attr {
        key: "dtype"
        value {
          type: DT_DOUBLE
        }
      }
      attr {
        key: "value"
        value {
          tensor {
            dtype: DT_DOUBLE
            tensor_shape {
            }
            double_val: 99999.0
          }
        }
      }
    }
    node {
      name: "dnn/input_from_feature_columns/input_layer/capital-gain/truediv"
      op: "RealDiv"
      input: "dnn/input_from_feature_columns/input_layer/capital-gain/sub"
      input: "dnn/input_from_feature_columns/input_layer/capital-gain/truediv/y"
      attr {
        key: "T"
        value {
          type: DT_DOUBLE
        }
      }
      attr {
        key: "_output_shapes"
        value {
          list {
            shape {
              dim {
                size: -1
              }
              dim {
                size: 1
              }
            }
          }
        }
      }
    }
    node {
      name: "dnn/input_from_feature_columns/input_layer/capital-gain/Cast"
      op: "Cast"
      input: "dnn/input_from_feature_columns/input_layer/capital-gain/truediv"
      attr {
        key: "DstT"
        value {
          type: DT_FLOAT
        }
      }
      attr {
        key: "SrcT"
        value {
          type: DT_DOUBLE
        }
      }
      attr {
        key: "_output_shapes"
        value {
          list {
            shape {
              dim {
                size: -1
              }
              dim {
                size: 1
              }
            }
          }
        }
      }
    }
    node {
      name: "dnn/input_from_feature_columns/input_layer/capital-gain/Shape"
      op: "Shape"
      input: "dnn/input_from_feature_columns/input_layer/capital-gain/Cast"
      attr {
        key: "T"
        value {
          type: DT_FLOAT
        }
      }
      attr {
        key: "_output_shapes"
        value {
          list {
            shape {
              dim {
                size: 2
              }
            }
          }
        }
      }
    }
    node {
      name: "dnn/input_from_feature_columns/input_layer/capital-gain/strided_slice/stack"
      op: "Const"
      attr {
        key: "_output_shapes"
        value {
          list {
            shape {
              dim {
                size: 1
              }
            }
          }
        }
      }
      attr {
        key: "dtype"
        value {
          type: DT_INT32
        }
      }
      attr {
        key: "value"
        value {
          tensor {
            dtype: DT_INT32
            tensor_shape {
              dim {
                size: 1
              }
            }
            int_val: 0
          }
        }
      }
    }
    node {
      name: "dnn/input_from_feature_columns/input_layer/capital-gain/strided_slice/stack_1"
      op: "Const"
      attr {
        key: "_output_shapes"
        value {
          list {
            shape {
              dim {
                size: 1
              }
            }
          }
        }
      }
      attr {
        key: "dtype"
        value {
          type: DT_INT32
        }
      }
      attr {
        key: "value"
        value {
          tensor {
            dtype: DT_INT32
            tensor_shape {
              dim {
                size: 1
              }
            }
            int_val: 1
          }
        }
      }
    }
    node {
      name: "dnn/input_from_feature_columns/input_layer/capital-gain/strided_slice/stack_2"
      op: "Const"
      attr {
        key: "_output_shapes"
        value {
          list {
            shape {
              dim {
                size: 1
              }
            }
          }
        }
      }
      attr {
        key: "dtype"
        value {
          type: DT_INT32
        }
      }
      attr {
        key: "value"
        value {
          tensor {
            dtype: DT_INT32
            tensor_shape {
              dim {
                size: 1
              }
            }
            int_val: 1
          }
        }
      }
    }
    node {
      name: "dnn/input_from_feature_columns/input_layer/capital-gain/strided_slice"
      op: "StridedSlice"
      input: "dnn/input_from_feature_columns/input_layer/capital-gain/Shape"
      input: "dnn/input_from_feature_columns/input_layer/capital-gain/strided_slice/stack"
      input: "dnn/input_from_feature_columns/input_layer/capital-gain/strided_slice/stack_1"
      input: "dnn/input_from_feature_columns/input_layer/capital-gain/strided_slice/stack_2"
      attr {
        key: "Index"
        value {
          type: DT_INT32
        }
      }
      attr {
        key: "T"
        value {
          type: DT_INT32
        }
      }
      attr {
        key: "_output_shapes"
        value {
          list {
            shape {
            }
          }
        }
      }
      attr {
        key: "shrink_axis_mask"
        value {
          i: 1
        }
      }
    }
    node {
      name: "dnn/input_from_feature_columns/input_layer/capital-gain/Reshape/shape/1"
      op: "Const"
      attr {
        key: "_output_shapes"
        value {
          list {
            shape {
            }
          }
        }
      }
      attr {
        key: "dtype"
        value {
          type: DT_INT32
        }
      }
      attr {
        key: "value"
        value {
          tensor {
            dtype: DT_INT32
            tensor_shape {
            }
            int_val: 1
          }
        }
      }
    }
    node {
      name: "dnn/input_from_feature_columns/input_layer/capital-gain/Reshape/shape"
      op: "Pack"
      input: "dnn/input_from_feature_columns/input_layer/capital-gain/strided_slice"
      input: "dnn/input_from_feature_columns/input_layer/capital-gain/Reshape/shape/1"
      attr {
        key: "N"
        value {
          i: 2
        }
      }
      attr {
        key: "T"
        value {
          type: DT_INT32
        }
      }
      attr {
        key: "_output_shapes"
        value {
          list {
            shape {
              dim {
                size: 2
              }
            }
          }
        }
      }
    }
    node {
      name: "dnn/input_from_feature_columns/input_layer/capital-gain/Reshape"
      op: "Reshape"
      input: "dnn/input_from_feature_columns/input_layer/capital-gain/Cast"
      input: "dnn/input_from_feature_columns/input_layer/capital-gain/Reshape/shape"
      attr {
        key: "T"
        value {
          type: DT_FLOAT
        }
      }
      attr {
        key: "_output_shapes"
        value {
          list {
            shape {
              dim {
                size: -1
              }
              dim {
                size: 1
              }
            }
          }
        }
      }
    }
    node {
      name: "dnn/input_from_feature_columns/input_layer/capital-loss/ExpandDims/dim"
      op: "Const"
      attr {
        key: "_output_shapes"
        value {
          list {
            shape {
            }
          }
        }
      }
      attr {
        key: "dtype"
        value {
          type: DT_INT32
        }
      }
      attr {
        key: "value"
        value {
          tensor {
            dtype: DT_INT32
            tensor_shape {
            }
            int_val: -1
          }
        }
      }
    }
    node {
      name: "dnn/input_from_feature_columns/input_layer/capital-loss/ExpandDims"
      op: "ExpandDims"
      input: "capital-loss"
      input: "dnn/input_from_feature_columns/input_layer/capital-loss/ExpandDims/dim"
      attr {
        key: "T"
        value {
          type: DT_INT64
        }
      }
      attr {
        key: "_output_shapes"
        value {
          list {
            shape {
              dim {
                size: -1
              }
              dim {
                size: 1
              }
            }
          }
        }
      }
    }
    node {
      name: "dnn/input_from_feature_columns/input_layer/capital-loss/sub/y"
      op: "Const"
      attr {
        key: "_output_shapes"
        value {
          list {
            shape {
            }
          }
        }
      }
      attr {
        key: "dtype"
        value {
          type: DT_INT64
        }
      }
      attr {
        key: "value"
        value {
          tensor {
            dtype: DT_INT64
            tensor_shape {
            }
            int64_val: 0
          }
        }
      }
    }
    node {
      name: "dnn/input_from_feature_columns/input_layer/capital-loss/sub"
      op: "Sub"
      input: "dnn/input_from_feature_columns/input_layer/capital-loss/ExpandDims"
      input: "dnn/input_from_feature_columns/input_layer/capital-loss/sub/y"
      attr {
        key: "T"
        value {
          type: DT_INT64
        }
      }
      attr {
        key: "_output_shapes"
        value {
          list {
            shape {
              dim {
                size: -1
              }
              dim {
                size: 1
              }
            }
          }
        }
      }
    }
    node {
      name: "dnn/input_from_feature_columns/input_layer/capital-loss/truediv/y"
      op: "Const"
      attr {
        key: "_output_shapes"
        value {
          list {
            shape {
            }
          }
        }
      }
      attr {
        key: "dtype"
        value {
          type: DT_INT64
        }
      }
      attr {
        key: "value"
        value {
          tensor {
            dtype: DT_INT64
            tensor_shape {
            }
            int64_val: 4356
          }
        }
      }
    }
    node {
      name: "dnn/input_from_feature_columns/input_layer/capital-loss/truediv/Cast"
      op: "Cast"
      input: "dnn/input_from_feature_columns/input_layer/capital-loss/sub"
      attr {
        key: "DstT"
        value {
          type: DT_DOUBLE
        }
      }
      attr {
        key: "SrcT"
        value {
          type: DT_INT64
        }
      }
      attr {
        key: "_output_shapes"
        value {
          list {
            shape {
              dim {
                size: -1
              }
              dim {
                size: 1
              }
            }
          }
        }
      }
    }
    node {
      name: "dnn/input_from_feature_columns/input_layer/capital-loss/truediv/Cast_1"
      op: "Cast"
      input: "dnn/input_from_feature_columns/input_layer/capital-loss/truediv/y"
      attr {
        key: "DstT"
        value {
          type: DT_DOUBLE
        }
      }
      attr {
        key: "SrcT"
        value {
          type: DT_INT64
        }
      }
      attr {
        key: "_output_shapes"
        value {
          list {
            shape {
            }
          }
        }
      }
    }
    node {
      name: "dnn/input_from_feature_columns/input_layer/capital-loss/truediv"
      op: "RealDiv"
      input: "dnn/input_from_feature_columns/input_layer/capital-loss/truediv/Cast"
      input: "dnn/input_from_feature_columns/input_layer/capital-loss/truediv/Cast_1"
      attr {
        key: "T"
        value {
          type: DT_DOUBLE
        }
      }
      attr {
        key: "_output_shapes"
        value {
          list {
            shape {
              dim {
                size: -1
              }
              dim {
                size: 1
              }
            }
          }
        }
      }
    }
    node {
      name: "dnn/input_from_feature_columns/input_layer/capital-loss/Cast"
      op: "Cast"
      input: "dnn/input_from_feature_columns/input_layer/capital-loss/truediv"
      attr {
        key: "DstT"
        value {
          type: DT_FLOAT
        }
      }
      attr {
        key: "SrcT"
        value {
          type: DT_DOUBLE
        }
      }
      attr {
        key: "_output_shapes"
        value {
          list {
            shape {
              dim {
                size: -1
              }
              dim {
                size: 1
              }
            }
          }
        }
      }
    }
    node {
      name: "dnn/input_from_feature_columns/input_layer/capital-loss/Shape"
      op: "Shape"
      input: "dnn/input_from_feature_columns/input_layer/capital-loss/Cast"
      attr {
        key: "T"
        value {
          type: DT_FLOAT
        }
      }
      attr {
        key: "_output_shapes"
        value {
          list {
            shape {
              dim {
                size: 2
              }
            }
          }
        }
      }
    }
    node {
      name: "dnn/input_from_feature_columns/input_layer/capital-loss/strided_slice/stack"
      op: "Const"
      attr {
        key: "_output_shapes"
        value {
          list {
            shape {
              dim {
                size: 1
              }
            }
          }
        }
      }
      attr {
        key: "dtype"
        value {
          type: DT_INT32
        }
      }
      attr {
        key: "value"
        value {
          tensor {
            dtype: DT_INT32
            tensor_shape {
              dim {
                size: 1
              }
            }
            int_val: 0
          }
        }
      }
    }
    node {
      name: "dnn/input_from_feature_columns/input_layer/capital-loss/strided_slice/stack_1"
      op: "Const"
      attr {
        key: "_output_shapes"
        value {
          list {
            shape {
              dim {
                size: 1
              }
            }
          }
        }
      }
      attr {
        key: "dtype"
        value {
          type: DT_INT32
        }
      }
      attr {
        key: "value"
        value {
          tensor {
            dtype: DT_INT32
            tensor_shape {
              dim {
                size: 1
              }
            }
            int_val: 1
          }
        }
      }
    }
    node {
      name: "dnn/input_from_feature_columns/input_layer/capital-loss/strided_slice/stack_2"
      op: "Const"
      attr {
        key: "_output_shapes"
        value {
          list {
            shape {
              dim {
                size: 1
              }
            }
          }
        }
      }
      attr {
        key: "dtype"
        value {
          type: DT_INT32
        }
      }
      attr {
        key: "value"
        value {
          tensor {
            dtype: DT_INT32
            tensor_shape {
              dim {
                size: 1
              }
            }
            int_val: 1
          }
        }
      }
    }
    node {
      name: "dnn/input_from_feature_columns/input_layer/capital-loss/strided_slice"
      op: "StridedSlice"
      input: "dnn/input_from_feature_columns/input_layer/capital-loss/Shape"
      input: "dnn/input_from_feature_columns/input_layer/capital-loss/strided_slice/stack"
      input: "dnn/input_from_feature_columns/input_layer/capital-loss/strided_slice/stack_1"
      input: "dnn/input_from_feature_columns/input_layer/capital-loss/strided_slice/stack_2"
      attr {
        key: "Index"
        value {
          type: DT_INT32
        }
      }
      attr {
        key: "T"
        value {
          type: DT_INT32
        }
      }
      attr {
        key: "_output_shapes"
        value {
          list {
            shape {
            }
          }
        }
      }
      attr {
        key: "shrink_axis_mask"
        value {
          i: 1
        }
      }
    }
    node {
      name: "dnn/input_from_feature_columns/input_layer/capital-loss/Reshape/shape/1"
      op: "Const"
      attr {
        key: "_output_shapes"
        value {
          list {
            shape {
            }
          }
        }
      }
      attr {
        key: "dtype"
        value {
          type: DT_INT32
        }
      }
      attr {
        key: "value"
        value {
          tensor {
            dtype: DT_INT32
            tensor_shape {
            }
            int_val: 1
          }
        }
      }
    }
    node {
      name: "dnn/input_from_feature_columns/input_layer/capital-loss/Reshape/shape"
      op: "Pack"
      input: "dnn/input_from_feature_columns/input_layer/capital-loss/strided_slice"
      input: "dnn/input_from_feature_columns/input_layer/capital-loss/Reshape/shape/1"
      attr {
        key: "N"
        value {
          i: 2
        }
      }
      attr {
        key: "T"
        value {
          type: DT_INT32
        }
      }
      attr {
        key: "_output_shapes"
        value {
          list {
            shape {
              dim {
                size: 2
              }
            }
          }
        }
      }
    }
    node {
      name: "dnn/input_from_feature_columns/input_layer/capital-loss/Reshape"
      op: "Reshape"
      input: "dnn/input_from_feature_columns/input_layer/capital-loss/Cast"
      input: "dnn/input_from_feature_columns/input_layer/capital-loss/Reshape/shape"
      attr {
        key: "T"
        value {
          type: DT_FLOAT
        }
      }
      attr {
        key: "_output_shapes"
        value {
          list {
            shape {
              dim {
                size: -1
              }
              dim {
                size: 1
              }
            }
          }
        }
      }
    }
    node {
      name: "dnn/input_from_feature_columns/input_layer/education-num/ExpandDims/dim"
      op: "Const"
      attr {
        key: "_output_shapes"
        value {
          list {
            shape {
            }
          }
        }
      }
      attr {
        key: "dtype"
        value {
          type: DT_INT32
        }
      }
      attr {
        key: "value"
        value {
          tensor {
            dtype: DT_INT32
            tensor_shape {
            }
            int_val: -1
          }
        }
      }
    }
    node {
      name: "dnn/input_from_feature_columns/input_layer/education-num/ExpandDims"
      op: "ExpandDims"
      input: "education-num"
      input: "dnn/input_from_feature_columns/input_layer/education-num/ExpandDims/dim"
      attr {
        key: "T"
        value {
          type: DT_INT32
        }
      }
      attr {
        key: "_output_shapes"
        value {
          list {
            shape {
              dim {
                size: -1
              }
              dim {
                size: 1
              }
            }
          }
        }
      }
    }
    node {
      name: "dnn/input_from_feature_columns/input_layer/education-num/sub/y"
      op: "Const"
      attr {
        key: "_output_shapes"
        value {
          list {
            shape {
            }
          }
        }
      }
      attr {
        key: "dtype"
        value {
          type: DT_INT32
        }
      }
      attr {
        key: "value"
        value {
          tensor {
            dtype: DT_INT32
            tensor_shape {
            }
            int_val: 1
          }
        }
      }
    }
    node {
      name: "dnn/input_from_feature_columns/input_layer/education-num/sub"
      op: "Sub"
      input: "dnn/input_from_feature_columns/input_layer/education-num/ExpandDims"
      input: "dnn/input_from_feature_columns/input_layer/education-num/sub/y"
      attr {
        key: "T"
        value {
          type: DT_INT32
        }
      }
      attr {
        key: "_output_shapes"
        value {
          list {
            shape {
              dim {
                size: -1
              }
              dim {
                size: 1
              }
            }
          }
        }
      }
    }
    node {
      name: "dnn/input_from_feature_columns/input_layer/education-num/truediv/y"
      op: "Const"
      attr {
        key: "_output_shapes"
        value {
          list {
            shape {
            }
          }
        }
      }
      attr {
        key: "dtype"
        value {
          type: DT_INT32
        }
      }
      attr {
        key: "value"
        value {
          tensor {
            dtype: DT_INT32
            tensor_shape {
            }
            int_val: 16
          }
        }
      }
    }
    node {
      name: "dnn/input_from_feature_columns/input_layer/education-num/truediv/Cast"
      op: "Cast"
      input: "dnn/input_from_feature_columns/input_layer/education-num/sub"
      attr {
        key: "DstT"
        value {
          type: DT_DOUBLE
        }
      }
      attr {
        key: "SrcT"
        value {
          type: DT_INT32
        }
      }
      attr {
        key: "_output_shapes"
        value {
          list {
            shape {
              dim {
                size: -1
              }
              dim {
                size: 1
              }
            }
          }
        }
      }
    }
    node {
      name: "dnn/input_from_feature_columns/input_layer/education-num/truediv/Cast_1"
      op: "Cast"
      input: "dnn/input_from_feature_columns/input_layer/education-num/truediv/y"
      attr {
        key: "DstT"
        value {
          type: DT_DOUBLE
        }
      }
      attr {
        key: "SrcT"
        value {
          type: DT_INT32
        }
      }
      attr {
        key: "_output_shapes"
        value {
          list {
            shape {
            }
          }
        }
      }
    }
    node {
      name: "dnn/input_from_feature_columns/input_layer/education-num/truediv"
      op: "RealDiv"
      input: "dnn/input_from_feature_columns/input_layer/education-num/truediv/Cast"
      input: "dnn/input_from_feature_columns/input_layer/education-num/truediv/Cast_1"
      attr {
        key: "T"
        value {
          type: DT_DOUBLE
        }
      }
      attr {
        key: "_output_shapes"
        value {
          list {
            shape {
              dim {
                size: -1
              }
              dim {
                size: 1
              }
            }
          }
        }
      }
    }
    node {
      name: "dnn/input_from_feature_columns/input_layer/education-num/Cast"
      op: "Cast"
      input: "dnn/input_from_feature_columns/input_layer/education-num/truediv"
      attr {
        key: "DstT"
        value {
          type: DT_FLOAT
        }
      }
      attr {
        key: "SrcT"
        value {
          type: DT_DOUBLE
        }
      }
      attr {
        key: "_output_shapes"
        value {
          list {
            shape {
              dim {
                size: -1
              }
              dim {
                size: 1
              }
            }
          }
        }
      }
    }
    node {
      name: "dnn/input_from_feature_columns/input_layer/education-num/Shape"
      op: "Shape"
      input: "dnn/input_from_feature_columns/input_layer/education-num/Cast"
      attr {
        key: "T"
        value {
          type: DT_FLOAT
        }
      }
      attr {
        key: "_output_shapes"
        value {
          list {
            shape {
              dim {
                size: 2
              }
            }
          }
        }
      }
    }
    node {
      name: "dnn/input_from_feature_columns/input_layer/education-num/strided_slice/stack"
      op: "Const"
      attr {
        key: "_output_shapes"
        value {
          list {
            shape {
              dim {
                size: 1
              }
            }
          }
        }
      }
      attr {
        key: "dtype"
        value {
          type: DT_INT32
        }
      }
      attr {
        key: "value"
        value {
          tensor {
            dtype: DT_INT32
            tensor_shape {
              dim {
                size: 1
              }
            }
            int_val: 0
          }
        }
      }
    }
    node {
      name: "dnn/input_from_feature_columns/input_layer/education-num/strided_slice/stack_1"
      op: "Const"
      attr {
        key: "_output_shapes"
        value {
          list {
            shape {
              dim {
                size: 1
              }
            }
          }
        }
      }
      attr {
        key: "dtype"
        value {
          type: DT_INT32
        }
      }
      attr {
        key: "value"
        value {
          tensor {
            dtype: DT_INT32
            tensor_shape {
              dim {
                size: 1
              }
            }
            int_val: 1
          }
        }
      }
    }
    node {
      name: "dnn/input_from_feature_columns/input_layer/education-num/strided_slice/stack_2"
      op: "Const"
      attr {
        key: "_output_shapes"
        value {
          list {
            shape {
              dim {
                size: 1
              }
            }
          }
        }
      }
      attr {
        key: "dtype"
        value {
          type: DT_INT32
        }
      }
      attr {
        key: "value"
        value {
          tensor {
            dtype: DT_INT32
            tensor_shape {
              dim {
                size: 1
              }
            }
            int_val: 1
          }
        }
      }
    }
    node {
      name: "dnn/input_from_feature_columns/input_layer/education-num/strided_slice"
      op: "StridedSlice"
      input: "dnn/input_from_feature_columns/input_layer/education-num/Shape"
      input: "dnn/input_from_feature_columns/input_layer/education-num/strided_slice/stack"
      input: "dnn/input_from_feature_columns/input_layer/education-num/strided_slice/stack_1"
      input: "dnn/input_from_feature_columns/input_layer/education-num/strided_slice/stack_2"
      attr {
        key: "Index"
        value {
          type: DT_INT32
        }
      }
      attr {
        key: "T"
        value {
          type: DT_INT32
        }
      }
      attr {
        key: "_output_shapes"
        value {
          list {
            shape {
            }
          }
        }
      }
      attr {
        key: "shrink_axis_mask"
        value {
          i: 1
        }
      }
    }
    node {
      name: "dnn/input_from_feature_columns/input_layer/education-num/Reshape/shape/1"
      op: "Const"
      attr {
        key: "_output_shapes"
        value {
          list {
            shape {
            }
          }
        }
      }
      attr {
        key: "dtype"
        value {
          type: DT_INT32
        }
      }
      attr {
        key: "value"
        value {
          tensor {
            dtype: DT_INT32
            tensor_shape {
            }
            int_val: 1
          }
        }
      }
    }
    node {
      name: "dnn/input_from_feature_columns/input_layer/education-num/Reshape/shape"
      op: "Pack"
      input: "dnn/input_from_feature_columns/input_layer/education-num/strided_slice"
      input: "dnn/input_from_feature_columns/input_layer/education-num/Reshape/shape/1"
      attr {
        key: "N"
        value {
          i: 2
        }
      }
      attr {
        key: "T"
        value {
          type: DT_INT32
        }
      }
      attr {
        key: "_output_shapes"
        value {
          list {
            shape {
              dim {
                size: 2
              }
            }
          }
        }
      }
    }
    node {
      name: "dnn/input_from_feature_columns/input_layer/education-num/Reshape"
      op: "Reshape"
      input: "dnn/input_from_feature_columns/input_layer/education-num/Cast"
      input: "dnn/input_from_feature_columns/input_layer/education-num/Reshape/shape"
      attr {
        key: "T"
        value {
          type: DT_FLOAT
        }
      }
      attr {
        key: "_output_shapes"
        value {
          list {
            shape {
              dim {
                size: -1
              }
              dim {
                size: 1
              }
            }
          }
        }
      }
    }
    node {
      name: "dnn/input_from_feature_columns/input_layer/education_indicator/ExpandDims/dim"
      op: "Const"
      attr {
        key: "_output_shapes"
        value {
          list {
            shape {
            }
          }
        }
      }
      attr {
        key: "dtype"
        value {
          type: DT_INT32
        }
      }
      attr {
        key: "value"
        value {
          tensor {
            dtype: DT_INT32
            tensor_shape {
            }
            int_val: -1
          }
        }
      }
    }
    node {
      name: "dnn/input_from_feature_columns/input_layer/education_indicator/ExpandDims"
      op: "ExpandDims"
      input: "education"
      input: "dnn/input_from_feature_columns/input_layer/education_indicator/ExpandDims/dim"
      attr {
        key: "T"
        value {
          type: DT_STRING
        }
      }
      attr {
        key: "_output_shapes"
        value {
          list {
            shape {
              dim {
                size: -1
              }
              dim {
                size: 1
              }
            }
          }
        }
      }
    }
    node {
      name: "dnn/input_from_feature_columns/input_layer/education_indicator/to_sparse_input/ignore_value/x"
      op: "Const"
      attr {
        key: "_output_shapes"
        value {
          list {
            shape {
            }
          }
        }
      }
      attr {
        key: "dtype"
        value {
          type: DT_STRING
        }
      }
      attr {
        key: "value"
        value {
          tensor {
            dtype: DT_STRING
            tensor_shape {
            }
            string_val: ""
          }
        }
      }
    }
    node {
      name: "dnn/input_from_feature_columns/input_layer/education_indicator/to_sparse_input/NotEqual"
      op: "NotEqual"
      input: "dnn/input_from_feature_columns/input_layer/education_indicator/ExpandDims"
      input: "dnn/input_from_feature_columns/input_layer/education_indicator/to_sparse_input/ignore_value/x"
      attr {
        key: "T"
        value {
          type: DT_STRING
        }
      }
      attr {
        key: "_output_shapes"
        value {
          list {
            shape {
              dim {
                size: -1
              }
              dim {
                size: 1
              }
            }
          }
        }
      }
    }
    node {
      name: "dnn/input_from_feature_columns/input_layer/education_indicator/to_sparse_input/indices"
      op: "Where"
      input: "dnn/input_from_feature_columns/input_layer/education_indicator/to_sparse_input/NotEqual"
      attr {
        key: "_output_shapes"
        value {
          list {
            shape {
              dim {
                size: -1
              }
              dim {
                size: 2
              }
            }
          }
        }
      }
    }
    node {
      name: "dnn/input_from_feature_columns/input_layer/education_indicator/to_sparse_input/values"
      op: "GatherNd"
      input: "dnn/input_from_feature_columns/input_layer/education_indicator/ExpandDims"
      input: "dnn/input_from_feature_columns/input_layer/education_indicator/to_sparse_input/indices"
      attr {
        key: "Tindices"
        value {
          type: DT_INT64
        }
      }
      attr {
        key: "Tparams"
        value {
          type: DT_STRING
        }
      }
      attr {
        key: "_output_shapes"
        value {
          list {
            shape {
              dim {
                size: -1
              }
            }
          }
        }
      }
    }
    node {
      name: "dnn/input_from_feature_columns/input_layer/education_indicator/to_sparse_input/dense_shape"
      op: "Shape"
      input: "dnn/input_from_feature_columns/input_layer/education_indicator/ExpandDims"
      attr {
        key: "T"
        value {
          type: DT_STRING
        }
      }
      attr {
        key: "_output_shapes"
        value {
          list {
            shape {
              dim {
                size: 2
              }
            }
          }
        }
      }
      attr {
        key: "out_type"
        value {
          type: DT_INT64
        }
      }
    }
    node {
      name: "dnn/input_from_feature_columns/input_layer/education_indicator/education_lookup/Const"
      op: "Const"
      attr {
        key: "_output_shapes"
        value {
          list {
            shape {
              dim {
                size: 16
              }
            }
          }
        }
      }
      attr {
        key: "dtype"
        value {
          type: DT_STRING
        }
      }
      attr {
        key: "value"
        value {
          tensor {
            dtype: DT_STRING
            tensor_shape {
              dim {
                size: 16
              }
            }
            string_val: "Bachelors"
            string_val: "HS-grad"
            string_val: "11th"
            string_val: "Masters"
            string_val: "9th"
            string_val: "Some-college"
            string_val: "Assoc-acdm"
            string_val: "Assoc-voc"
            string_val: "7th-8th"
            string_val: "Doctorate"
            string_val: "Prof-school"
            string_val: "5th-6th"
            string_val: "10th"
            string_val: "1st-4th"
            string_val: "Preschool"
            string_val: "12th"
          }
        }
      }
    }
    node {
      name: "dnn/input_from_feature_columns/input_layer/education_indicator/education_lookup/Size"
      op: "Const"
      attr {
        key: "_output_shapes"
        value {
          list {
            shape {
            }
          }
        }
      }
      attr {
        key: "dtype"
        value {
          type: DT_INT32
        }
      }
      attr {
        key: "value"
        value {
          tensor {
            dtype: DT_INT32
            tensor_shape {
            }
            int_val: 16
          }
        }
      }
    }
    node {
      name: "dnn/input_from_feature_columns/input_layer/education_indicator/education_lookup/range/start"
      op: "Const"
      attr {
        key: "_output_shapes"
        value {
          list {
            shape {
            }
          }
        }
      }
      attr {
        key: "dtype"
        value {
          type: DT_INT32
        }
      }
      attr {
        key: "value"
        value {
          tensor {
            dtype: DT_INT32
            tensor_shape {
            }
            int_val: 0
          }
        }
      }
    }
    node {
      name: "dnn/input_from_feature_columns/input_layer/education_indicator/education_lookup/range/delta"
      op: "Const"
      attr {
        key: "_output_shapes"
        value {
          list {
            shape {
            }
          }
        }
      }
      attr {
        key: "dtype"
        value {
          type: DT_INT32
        }
      }
      attr {
        key: "value"
        value {
          tensor {
            dtype: DT_INT32
            tensor_shape {
            }
            int_val: 1
          }
        }
      }
    }
    node {
      name: "dnn/input_from_feature_columns/input_layer/education_indicator/education_lookup/range"
      op: "Range"
      input: "dnn/input_from_feature_columns/input_layer/education_indicator/education_lookup/range/start"
      input: "dnn/input_from_feature_columns/input_layer/education_indicator/education_lookup/Size"
      input: "dnn/input_from_feature_columns/input_layer/education_indicator/education_lookup/range/delta"
      attr {
        key: "_output_shapes"
        value {
          list {
            shape {
              dim {
                size: 16
              }
            }
          }
        }
      }
    }
    node {
      name: "dnn/input_from_feature_columns/input_layer/education_indicator/education_lookup/Cast"
      op: "Cast"
      input: "dnn/input_from_feature_columns/input_layer/education_indicator/education_lookup/range"
      attr {
        key: "DstT"
        value {
          type: DT_INT64
        }
      }
      attr {
        key: "SrcT"
        value {
          type: DT_INT32
        }
      }
      attr {
        key: "_output_shapes"
        value {
          list {
            shape {
              dim {
                size: 16
              }
            }
          }
        }
      }
    }
    node {
      name: "dnn/input_from_feature_columns/input_layer/education_indicator/education_lookup/hash_table/Const"
      op: "Const"
      attr {
        key: "_output_shapes"
        value {
          list {
            shape {
            }
          }
        }
      }
      attr {
        key: "dtype"
        value {
          type: DT_INT64
        }
      }
      attr {
        key: "value"
        value {
          tensor {
            dtype: DT_INT64
            tensor_shape {
            }
            int64_val: -1
          }
        }
      }
    }
    node {
      name: "dnn/input_from_feature_columns/input_layer/education_indicator/education_lookup/hash_table/hash_table"
      op: "HashTableV2"
      attr {
        key: "_output_shapes"
        value {
          list {
            shape {
            }
          }
        }
      }
      attr {
        key: "key_dtype"
        value {
          type: DT_STRING
        }
      }
      attr {
        key: "shared_name"
        value {
          s: "hash_table_9980d6ec-e60c-4cb6-9ac8-bd8e4a20d3d4"
        }
      }
      attr {
        key: "value_dtype"
        value {
          type: DT_INT64
        }
      }
    }
    node {
      name: "dnn/input_from_feature_columns/input_layer/education_indicator/education_lookup/hash_table/table_init/LookupTableImportV2"
      op: "LookupTableImportV2"
      input: "dnn/input_from_feature_columns/input_layer/education_indicator/education_lookup/hash_table/hash_table"
      input: "dnn/input_from_feature_columns/input_layer/education_indicator/education_lookup/Const"
      input: "dnn/input_from_feature_columns/input_layer/education_indicator/education_lookup/Cast"
      attr {
        key: "Tin"
        value {
          type: DT_STRING
        }
      }
      attr {
        key: "Tout"
        value {
          type: DT_INT64
        }
      }
    }
    node {
      name: "dnn/input_from_feature_columns/input_layer/education_indicator/hash_table_Lookup/LookupTableFindV2"
      op: "LookupTableFindV2"
      input: "dnn/input_from_feature_columns/input_layer/education_indicator/education_lookup/hash_table/hash_table"
      input: "dnn/input_from_feature_columns/input_layer/education_indicator/to_sparse_input/values"
      input: "dnn/input_from_feature_columns/input_layer/education_indicator/education_lookup/hash_table/Const"
      attr {
        key: "Tin"
        value {
          type: DT_STRING
        }
      }
      attr {
        key: "Tout"
        value {
          type: DT_INT64
        }
      }
      attr {
        key: "_output_shapes"
        value {
          list {
            shape {
              dim {
                size: -1
              }
            }
          }
        }
      }
    }
    node {
      name: "dnn/input_from_feature_columns/input_layer/education_indicator/SparseToDense/default_value"
      op: "Const"
      attr {
        key: "_output_shapes"
        value {
          list {
            shape {
            }
          }
        }
      }
      attr {
        key: "dtype"
        value {
          type: DT_INT64
        }
      }
      attr {
        key: "value"
        value {
          tensor {
            dtype: DT_INT64
            tensor_shape {
            }
            int64_val: -1
          }
        }
      }
    }
    node {
      name: "dnn/input_from_feature_columns/input_layer/education_indicator/SparseToDense"
      op: "SparseToDense"
      input: "dnn/input_from_feature_columns/input_layer/education_indicator/to_sparse_input/indices"
      input: "dnn/input_from_feature_columns/input_layer/education_indicator/to_sparse_input/dense_shape"
      input: "dnn/input_from_feature_columns/input_layer/education_indicator/hash_table_Lookup/LookupTableFindV2"
      input: "dnn/input_from_feature_columns/input_layer/education_indicator/SparseToDense/default_value"
      attr {
        key: "T"
        value {
          type: DT_INT64
        }
      }
      attr {
        key: "Tindices"
        value {
          type: DT_INT64
        }
      }
      attr {
        key: "_output_shapes"
        value {
          list {
            shape {
              dim {
                size: -1
              }
              dim {
                size: 1
              }
            }
          }
        }
      }
    }
    node {
      name: "dnn/input_from_feature_columns/input_layer/education_indicator/one_hot/Const"
      op: "Const"
      attr {
        key: "_output_shapes"
        value {
          list {
            shape {
            }
          }
        }
      }
      attr {
        key: "dtype"
        value {
          type: DT_FLOAT
        }
      }
      attr {
        key: "value"
        value {
          tensor {
            dtype: DT_FLOAT
            tensor_shape {
            }
            float_val: 1.0
          }
        }
      }
    }
    node {
      name: "dnn/input_from_feature_columns/input_layer/education_indicator/one_hot/Const_1"
      op: "Const"
      attr {
        key: "_output_shapes"
        value {
          list {
            shape {
            }
          }
        }
      }
      attr {
        key: "dtype"
        value {
          type: DT_FLOAT
        }
      }
      attr {
        key: "value"
        value {
          tensor {
            dtype: DT_FLOAT
            tensor_shape {
            }
            float_val: 0.0
          }
        }
      }
    }
    node {
      name: "dnn/input_from_feature_columns/input_layer/education_indicator/one_hot/depth"
      op: "Const"
      attr {
        key: "_output_shapes"
        value {
          list {
            shape {
            }
          }
        }
      }
      attr {
        key: "dtype"
        value {
          type: DT_INT32
        }
      }
      attr {
        key: "value"
        value {
          tensor {
            dtype: DT_INT32
            tensor_shape {
            }
            int_val: 16
          }
        }
      }
    }
    node {
      name: "dnn/input_from_feature_columns/input_layer/education_indicator/one_hot"
      op: "OneHot"
      input: "dnn/input_from_feature_columns/input_layer/education_indicator/SparseToDense"
      input: "dnn/input_from_feature_columns/input_layer/education_indicator/one_hot/depth"
      input: "dnn/input_from_feature_columns/input_layer/education_indicator/one_hot/Const"
      input: "dnn/input_from_feature_columns/input_layer/education_indicator/one_hot/Const_1"
      attr {
        key: "T"
        value {
          type: DT_FLOAT
        }
      }
      attr {
        key: "_output_shapes"
        value {
          list {
            shape {
              dim {
                size: -1
              }
              dim {
                size: 1
              }
              dim {
                size: 16
              }
            }
          }
        }
      }
    }
    node {
      name: "dnn/input_from_feature_columns/input_layer/education_indicator/Sum/reduction_indices"
      op: "Const"
      attr {
        key: "_output_shapes"
        value {
          list {
            shape {
              dim {
                size: 1
              }
            }
          }
        }
      }
      attr {
        key: "dtype"
        value {
          type: DT_INT32
        }
      }
      attr {
        key: "value"
        value {
          tensor {
            dtype: DT_INT32
            tensor_shape {
              dim {
                size: 1
              }
            }
            int_val: -2
          }
        }
      }
    }
    node {
      name: "dnn/input_from_feature_columns/input_layer/education_indicator/Sum"
      op: "Sum"
      input: "dnn/input_from_feature_columns/input_layer/education_indicator/one_hot"
      input: "dnn/input_from_feature_columns/input_layer/education_indicator/Sum/reduction_indices"
      attr {
        key: "T"
        value {
          type: DT_FLOAT
        }
      }
      attr {
        key: "_output_shapes"
        value {
          list {
            shape {
              dim {
                size: -1
              }
              dim {
                size: 16
              }
            }
          }
        }
      }
    }
    node {
      name: "dnn/input_from_feature_columns/input_layer/education_indicator/Shape"
      op: "Shape"
      input: "dnn/input_from_feature_columns/input_layer/education_indicator/Sum"
      attr {
        key: "T"
        value {
          type: DT_FLOAT
        }
      }
      attr {
        key: "_output_shapes"
        value {
          list {
            shape {
              dim {
                size: 2
              }
            }
          }
        }
      }
    }
    node {
      name: "dnn/input_from_feature_columns/input_layer/education_indicator/strided_slice/stack"
      op: "Const"
      attr {
        key: "_output_shapes"
        value {
          list {
            shape {
              dim {
                size: 1
              }
            }
          }
        }
      }
      attr {
        key: "dtype"
        value {
          type: DT_INT32
        }
      }
      attr {
        key: "value"
        value {
          tensor {
            dtype: DT_INT32
            tensor_shape {
              dim {
                size: 1
              }
            }
            int_val: 0
          }
        }
      }
    }
    node {
      name: "dnn/input_from_feature_columns/input_layer/education_indicator/strided_slice/stack_1"
      op: "Const"
      attr {
        key: "_output_shapes"
        value {
          list {
            shape {
              dim {
                size: 1
              }
            }
          }
        }
      }
      attr {
        key: "dtype"
        value {
          type: DT_INT32
        }
      }
      attr {
        key: "value"
        value {
          tensor {
            dtype: DT_INT32
            tensor_shape {
              dim {
                size: 1
              }
            }
            int_val: 1
          }
        }
      }
    }
    node {
      name: "dnn/input_from_feature_columns/input_layer/education_indicator/strided_slice/stack_2"
      op: "Const"
      attr {
        key: "_output_shapes"
        value {
          list {
            shape {
              dim {
                size: 1
              }
            }
          }
        }
      }
      attr {
        key: "dtype"
        value {
          type: DT_INT32
        }
      }
      attr {
        key: "value"
        value {
          tensor {
            dtype: DT_INT32
            tensor_shape {
              dim {
                size: 1
              }
            }
            int_val: 1
          }
        }
      }
    }
    node {
      name: "dnn/input_from_feature_columns/input_layer/education_indicator/strided_slice"
      op: "StridedSlice"
      input: "dnn/input_from_feature_columns/input_layer/education_indicator/Shape"
      input: "dnn/input_from_feature_columns/input_layer/education_indicator/strided_slice/stack"
      input: "dnn/input_from_feature_columns/input_layer/education_indicator/strided_slice/stack_1"
      input: "dnn/input_from_feature_columns/input_layer/education_indicator/strided_slice/stack_2"
      attr {
        key: "Index"
        value {
          type: DT_INT32
        }
      }
      attr {
        key: "T"
        value {
          type: DT_INT32
        }
      }
      attr {
        key: "_output_shapes"
        value {
          list {
            shape {
            }
          }
        }
      }
      attr {
        key: "shrink_axis_mask"
        value {
          i: 1
        }
      }
    }
    node {
      name: "dnn/input_from_feature_columns/input_layer/education_indicator/Reshape/shape/1"
      op: "Const"
      attr {
        key: "_output_shapes"
        value {
          list {
            shape {
            }
          }
        }
      }
      attr {
        key: "dtype"
        value {
          type: DT_INT32
        }
      }
      attr {
        key: "value"
        value {
          tensor {
            dtype: DT_INT32
            tensor_shape {
            }
            int_val: 16
          }
        }
      }
    }
    node {
      name: "dnn/input_from_feature_columns/input_layer/education_indicator/Reshape/shape"
      op: "Pack"
      input: "dnn/input_from_feature_columns/input_layer/education_indicator/strided_slice"
      input: "dnn/input_from_feature_columns/input_layer/education_indicator/Reshape/shape/1"
      attr {
        key: "N"
        value {
          i: 2
        }
      }
      attr {
        key: "T"
        value {
          type: DT_INT32
        }
      }
      attr {
        key: "_output_shapes"
        value {
          list {
            shape {
              dim {
                size: 2
              }
            }
          }
        }
      }
    }
    node {
      name: "dnn/input_from_feature_columns/input_layer/education_indicator/Reshape"
      op: "Reshape"
      input: "dnn/input_from_feature_columns/input_layer/education_indicator/Sum"
      input: "dnn/input_from_feature_columns/input_layer/education_indicator/Reshape/shape"
      attr {
        key: "T"
        value {
          type: DT_FLOAT
        }
      }
      attr {
        key: "_output_shapes"
        value {
          list {
            shape {
              dim {
                size: -1
              }
              dim {
                size: 16
              }
            }
          }
        }
      }
    }
    node {
      name: "dnn/input_from_feature_columns/input_layer/hours-per-week/ExpandDims/dim"
      op: "Const"
      attr {
        key: "_output_shapes"
        value {
          list {
            shape {
            }
          }
        }
      }
      attr {
        key: "dtype"
        value {
          type: DT_INT32
        }
      }
      attr {
        key: "value"
        value {
          tensor {
            dtype: DT_INT32
            tensor_shape {
            }
            int_val: -1
          }
        }
      }
    }
    node {
      name: "dnn/input_from_feature_columns/input_layer/hours-per-week/ExpandDims"
      op: "ExpandDims"
      input: "hours-per-week"
      input: "dnn/input_from_feature_columns/input_layer/hours-per-week/ExpandDims/dim"
      attr {
        key: "T"
        value {
          type: DT_INT32
        }
      }
      attr {
        key: "_output_shapes"
        value {
          list {
            shape {
              dim {
                size: -1
              }
              dim {
                size: 1
              }
            }
          }
        }
      }
    }
    node {
      name: "dnn/input_from_feature_columns/input_layer/hours-per-week/sub/y"
      op: "Const"
      attr {
        key: "_output_shapes"
        value {
          list {
            shape {
            }
          }
        }
      }
      attr {
        key: "dtype"
        value {
          type: DT_INT32
        }
      }
      attr {
        key: "value"
        value {
          tensor {
            dtype: DT_INT32
            tensor_shape {
            }
            int_val: 1
          }
        }
      }
    }
    node {
      name: "dnn/input_from_feature_columns/input_layer/hours-per-week/sub"
      op: "Sub"
      input: "dnn/input_from_feature_columns/input_layer/hours-per-week/ExpandDims"
      input: "dnn/input_from_feature_columns/input_layer/hours-per-week/sub/y"
      attr {
        key: "T"
        value {
          type: DT_INT32
        }
      }
      attr {
        key: "_output_shapes"
        value {
          list {
            shape {
              dim {
                size: -1
              }
              dim {
                size: 1
              }
            }
          }
        }
      }
    }
    node {
      name: "dnn/input_from_feature_columns/input_layer/hours-per-week/truediv/y"
      op: "Const"
      attr {
        key: "_output_shapes"
        value {
          list {
            shape {
            }
          }
        }
      }
      attr {
        key: "dtype"
        value {
          type: DT_INT32
        }
      }
      attr {
        key: "value"
        value {
          tensor {
            dtype: DT_INT32
            tensor_shape {
            }
            int_val: 99
          }
        }
      }
    }
    node {
      name: "dnn/input_from_feature_columns/input_layer/hours-per-week/truediv/Cast"
      op: "Cast"
      input: "dnn/input_from_feature_columns/input_layer/hours-per-week/sub"
      attr {
        key: "DstT"
        value {
          type: DT_DOUBLE
        }
      }
      attr {
        key: "SrcT"
        value {
          type: DT_INT32
        }
      }
      attr {
        key: "_output_shapes"
        value {
          list {
            shape {
              dim {
                size: -1
              }
              dim {
                size: 1
              }
            }
          }
        }
      }
    }
    node {
      name: "dnn/input_from_feature_columns/input_layer/hours-per-week/truediv/Cast_1"
      op: "Cast"
      input: "dnn/input_from_feature_columns/input_layer/hours-per-week/truediv/y"
      attr {
        key: "DstT"
        value {
          type: DT_DOUBLE
        }
      }
      attr {
        key: "SrcT"
        value {
          type: DT_INT32
        }
      }
      attr {
        key: "_output_shapes"
        value {
          list {
            shape {
            }
          }
        }
      }
    }
    node {
      name: "dnn/input_from_feature_columns/input_layer/hours-per-week/truediv"
      op: "RealDiv"
      input: "dnn/input_from_feature_columns/input_layer/hours-per-week/truediv/Cast"
      input: "dnn/input_from_feature_columns/input_layer/hours-per-week/truediv/Cast_1"
      attr {
        key: "T"
        value {
          type: DT_DOUBLE
        }
      }
      attr {
        key: "_output_shapes"
        value {
          list {
            shape {
              dim {
                size: -1
              }
              dim {
                size: 1
              }
            }
          }
        }
      }
    }
    node {
      name: "dnn/input_from_feature_columns/input_layer/hours-per-week/Cast"
      op: "Cast"
      input: "dnn/input_from_feature_columns/input_layer/hours-per-week/truediv"
      attr {
        key: "DstT"
        value {
          type: DT_FLOAT
        }
      }
      attr {
        key: "SrcT"
        value {
          type: DT_DOUBLE
        }
      }
      attr {
        key: "_output_shapes"
        value {
          list {
            shape {
              dim {
                size: -1
              }
              dim {
                size: 1
              }
            }
          }
        }
      }
    }
    node {
      name: "dnn/input_from_feature_columns/input_layer/hours-per-week/Shape"
      op: "Shape"
      input: "dnn/input_from_feature_columns/input_layer/hours-per-week/Cast"
      attr {
        key: "T"
        value {
          type: DT_FLOAT
        }
      }
      attr {
        key: "_output_shapes"
        value {
          list {
            shape {
              dim {
                size: 2
              }
            }
          }
        }
      }
    }
    node {
      name: "dnn/input_from_feature_columns/input_layer/hours-per-week/strided_slice/stack"
      op: "Const"
      attr {
        key: "_output_shapes"
        value {
          list {
            shape {
              dim {
                size: 1
              }
            }
          }
        }
      }
      attr {
        key: "dtype"
        value {
          type: DT_INT32
        }
      }
      attr {
        key: "value"
        value {
          tensor {
            dtype: DT_INT32
            tensor_shape {
              dim {
                size: 1
              }
            }
            int_val: 0
          }
        }
      }
    }
    node {
      name: "dnn/input_from_feature_columns/input_layer/hours-per-week/strided_slice/stack_1"
      op: "Const"
      attr {
        key: "_output_shapes"
        value {
          list {
            shape {
              dim {
                size: 1
              }
            }
          }
        }
      }
      attr {
        key: "dtype"
        value {
          type: DT_INT32
        }
      }
      attr {
        key: "value"
        value {
          tensor {
            dtype: DT_INT32
            tensor_shape {
              dim {
                size: 1
              }
            }
            int_val: 1
          }
        }
      }
    }
    node {
      name: "dnn/input_from_feature_columns/input_layer/hours-per-week/strided_slice/stack_2"
      op: "Const"
      attr {
        key: "_output_shapes"
        value {
          list {
            shape {
              dim {
                size: 1
              }
            }
          }
        }
      }
      attr {
        key: "dtype"
        value {
          type: DT_INT32
        }
      }
      attr {
        key: "value"
        value {
          tensor {
            dtype: DT_INT32
            tensor_shape {
              dim {
                size: 1
              }
            }
            int_val: 1
          }
        }
      }
    }
    node {
      name: "dnn/input_from_feature_columns/input_layer/hours-per-week/strided_slice"
      op: "StridedSlice"
      input: "dnn/input_from_feature_columns/input_layer/hours-per-week/Shape"
      input: "dnn/input_from_feature_columns/input_layer/hours-per-week/strided_slice/stack"
      input: "dnn/input_from_feature_columns/input_layer/hours-per-week/strided_slice/stack_1"
      input: "dnn/input_from_feature_columns/input_layer/hours-per-week/strided_slice/stack_2"
      attr {
        key: "Index"
        value {
          type: DT_INT32
        }
      }
      attr {
        key: "T"
        value {
          type: DT_INT32
        }
      }
      attr {
        key: "_output_shapes"
        value {
          list {
            shape {
            }
          }
        }
      }
      attr {
        key: "shrink_axis_mask"
        value {
          i: 1
        }
      }
    }
    node {
      name: "dnn/input_from_feature_columns/input_layer/hours-per-week/Reshape/shape/1"
      op: "Const"
      attr {
        key: "_output_shapes"
        value {
          list {
            shape {
            }
          }
        }
      }
      attr {
        key: "dtype"
        value {
          type: DT_INT32
        }
      }
      attr {
        key: "value"
        value {
          tensor {
            dtype: DT_INT32
            tensor_shape {
            }
            int_val: 1
          }
        }
      }
    }
    node {
      name: "dnn/input_from_feature_columns/input_layer/hours-per-week/Reshape/shape"
      op: "Pack"
      input: "dnn/input_from_feature_columns/input_layer/hours-per-week/strided_slice"
      input: "dnn/input_from_feature_columns/input_layer/hours-per-week/Reshape/shape/1"
      attr {
        key: "N"
        value {
          i: 2
        }
      }
      attr {
        key: "T"
        value {
          type: DT_INT32
        }
      }
      attr {
        key: "_output_shapes"
        value {
          list {
            shape {
              dim {
                size: 2
              }
            }
          }
        }
      }
    }
    node {
      name: "dnn/input_from_feature_columns/input_layer/hours-per-week/Reshape"
      op: "Reshape"
      input: "dnn/input_from_feature_columns/input_layer/hours-per-week/Cast"
      input: "dnn/input_from_feature_columns/input_layer/hours-per-week/Reshape/shape"
      attr {
        key: "T"
        value {
          type: DT_FLOAT
        }
      }
      attr {
        key: "_output_shapes"
        value {
          list {
            shape {
              dim {
                size: -1
              }
              dim {
                size: 1
              }
            }
          }
        }
      }
    }
    node {
      name: "dnn/input_from_feature_columns/input_layer/marital-status_indicator/ExpandDims/dim"
      op: "Const"
      attr {
        key: "_output_shapes"
        value {
          list {
            shape {
            }
          }
        }
      }
      attr {
        key: "dtype"
        value {
          type: DT_INT32
        }
      }
      attr {
        key: "value"
        value {
          tensor {
            dtype: DT_INT32
            tensor_shape {
            }
            int_val: -1
          }
        }
      }
    }
    node {
      name: "dnn/input_from_feature_columns/input_layer/marital-status_indicator/ExpandDims"
      op: "ExpandDims"
      input: "marital-status"
      input: "dnn/input_from_feature_columns/input_layer/marital-status_indicator/ExpandDims/dim"
      attr {
        key: "T"
        value {
          type: DT_STRING
        }
      }
      attr {
        key: "_output_shapes"
        value {
          list {
            shape {
              dim {
                size: -1
              }
              dim {
                size: 1
              }
            }
          }
        }
      }
    }
    node {
      name: "dnn/input_from_feature_columns/input_layer/marital-status_indicator/to_sparse_input/ignore_value/x"
      op: "Const"
      attr {
        key: "_output_shapes"
        value {
          list {
            shape {
            }
          }
        }
      }
      attr {
        key: "dtype"
        value {
          type: DT_STRING
        }
      }
      attr {
        key: "value"
        value {
          tensor {
            dtype: DT_STRING
            tensor_shape {
            }
            string_val: ""
          }
        }
      }
    }
    node {
      name: "dnn/input_from_feature_columns/input_layer/marital-status_indicator/to_sparse_input/NotEqual"
      op: "NotEqual"
      input: "dnn/input_from_feature_columns/input_layer/marital-status_indicator/ExpandDims"
      input: "dnn/input_from_feature_columns/input_layer/marital-status_indicator/to_sparse_input/ignore_value/x"
      attr {
        key: "T"
        value {
          type: DT_STRING
        }
      }
      attr {
        key: "_output_shapes"
        value {
          list {
            shape {
              dim {
                size: -1
              }
              dim {
                size: 1
              }
            }
          }
        }
      }
    }
    node {
      name: "dnn/input_from_feature_columns/input_layer/marital-status_indicator/to_sparse_input/indices"
      op: "Where"
      input: "dnn/input_from_feature_columns/input_layer/marital-status_indicator/to_sparse_input/NotEqual"
      attr {
        key: "_output_shapes"
        value {
          list {
            shape {
              dim {
                size: -1
              }
              dim {
                size: 2
              }
            }
          }
        }
      }
    }
    node {
      name: "dnn/input_from_feature_columns/input_layer/marital-status_indicator/to_sparse_input/values"
      op: "GatherNd"
      input: "dnn/input_from_feature_columns/input_layer/marital-status_indicator/ExpandDims"
      input: "dnn/input_from_feature_columns/input_layer/marital-status_indicator/to_sparse_input/indices"
      attr {
        key: "Tindices"
        value {
          type: DT_INT64
        }
      }
      attr {
        key: "Tparams"
        value {
          type: DT_STRING
        }
      }
      attr {
        key: "_output_shapes"
        value {
          list {
            shape {
              dim {
                size: -1
              }
            }
          }
        }
      }
    }
    node {
      name: "dnn/input_from_feature_columns/input_layer/marital-status_indicator/to_sparse_input/dense_shape"
      op: "Shape"
      input: "dnn/input_from_feature_columns/input_layer/marital-status_indicator/ExpandDims"
      attr {
        key: "T"
        value {
          type: DT_STRING
        }
      }
      attr {
        key: "_output_shapes"
        value {
          list {
            shape {
              dim {
                size: 2
              }
            }
          }
        }
      }
      attr {
        key: "out_type"
        value {
          type: DT_INT64
        }
      }
    }
    node {
      name: "dnn/input_from_feature_columns/input_layer/marital-status_indicator/marital-status_lookup/Const"
      op: "Const"
      attr {
        key: "_output_shapes"
        value {
          list {
            shape {
              dim {
                size: 7
              }
            }
          }
        }
      }
      attr {
        key: "dtype"
        value {
          type: DT_STRING
        }
      }
      attr {
        key: "value"
        value {
          tensor {
            dtype: DT_STRING
            tensor_shape {
              dim {
                size: 7
              }
            }
            string_val: "Never-married"
            string_val: "Married-civ-spouse"
            string_val: "Divorced"
            string_val: "Married-spouse-absent"
            string_val: "Separated"
            string_val: "Married-AF-spouse"
            string_val: "Widowed"
          }
        }
      }
    }
    node {
      name: "dnn/input_from_feature_columns/input_layer/marital-status_indicator/marital-status_lookup/Size"
      op: "Const"
      attr {
        key: "_output_shapes"
        value {
          list {
            shape {
            }
          }
        }
      }
      attr {
        key: "dtype"
        value {
          type: DT_INT32
        }
      }
      attr {
        key: "value"
        value {
          tensor {
            dtype: DT_INT32
            tensor_shape {
            }
            int_val: 7
          }
        }
      }
    }
    node {
      name: "dnn/input_from_feature_columns/input_layer/marital-status_indicator/marital-status_lookup/range/start"
      op: "Const"
      attr {
        key: "_output_shapes"
        value {
          list {
            shape {
            }
          }
        }
      }
      attr {
        key: "dtype"
        value {
          type: DT_INT32
        }
      }
      attr {
        key: "value"
        value {
          tensor {
            dtype: DT_INT32
            tensor_shape {
            }
            int_val: 0
          }
        }
      }
    }
    node {
      name: "dnn/input_from_feature_columns/input_layer/marital-status_indicator/marital-status_lookup/range/delta"
      op: "Const"
      attr {
        key: "_output_shapes"
        value {
          list {
            shape {
            }
          }
        }
      }
      attr {
        key: "dtype"
        value {
          type: DT_INT32
        }
      }
      attr {
        key: "value"
        value {
          tensor {
            dtype: DT_INT32
            tensor_shape {
            }
            int_val: 1
          }
        }
      }
    }
    node {
      name: "dnn/input_from_feature_columns/input_layer/marital-status_indicator/marital-status_lookup/range"
      op: "Range"
      input: "dnn/input_from_feature_columns/input_layer/marital-status_indicator/marital-status_lookup/range/start"
      input: "dnn/input_from_feature_columns/input_layer/marital-status_indicator/marital-status_lookup/Size"
      input: "dnn/input_from_feature_columns/input_layer/marital-status_indicator/marital-status_lookup/range/delta"
      attr {
        key: "_output_shapes"
        value {
          list {
            shape {
              dim {
                size: 7
              }
            }
          }
        }
      }
    }
    node {
      name: "dnn/input_from_feature_columns/input_layer/marital-status_indicator/marital-status_lookup/Cast"
      op: "Cast"
      input: "dnn/input_from_feature_columns/input_layer/marital-status_indicator/marital-status_lookup/range"
      attr {
        key: "DstT"
        value {
          type: DT_INT64
        }
      }
      attr {
        key: "SrcT"
        value {
          type: DT_INT32
        }
      }
      attr {
        key: "_output_shapes"
        value {
          list {
            shape {
              dim {
                size: 7
              }
            }
          }
        }
      }
    }
    node {
      name: "dnn/input_from_feature_columns/input_layer/marital-status_indicator/marital-status_lookup/hash_table/Const"
      op: "Const"
      attr {
        key: "_output_shapes"
        value {
          list {
            shape {
            }
          }
        }
      }
      attr {
        key: "dtype"
        value {
          type: DT_INT64
        }
      }
      attr {
        key: "value"
        value {
          tensor {
            dtype: DT_INT64
            tensor_shape {
            }
            int64_val: -1
          }
        }
      }
    }
    node {
      name: "dnn/input_from_feature_columns/input_layer/marital-status_indicator/marital-status_lookup/hash_table/hash_table"
      op: "HashTableV2"
      attr {
        key: "_output_shapes"
        value {
          list {
            shape {
            }
          }
        }
      }
      attr {
        key: "key_dtype"
        value {
          type: DT_STRING
        }
      }
      attr {
        key: "shared_name"
        value {
          s: "hash_table_5f6bdc5d-1a58-4a8c-9ca7-ba093a7a748e"
        }
      }
      attr {
        key: "value_dtype"
        value {
          type: DT_INT64
        }
      }
    }
    node {
      name: "dnn/input_from_feature_columns/input_layer/marital-status_indicator/marital-status_lookup/hash_table/table_init/LookupTableImportV2"
      op: "LookupTableImportV2"
      input: "dnn/input_from_feature_columns/input_layer/marital-status_indicator/marital-status_lookup/hash_table/hash_table"
      input: "dnn/input_from_feature_columns/input_layer/marital-status_indicator/marital-status_lookup/Const"
      input: "dnn/input_from_feature_columns/input_layer/marital-status_indicator/marital-status_lookup/Cast"
      attr {
        key: "Tin"
        value {
          type: DT_STRING
        }
      }
      attr {
        key: "Tout"
        value {
          type: DT_INT64
        }
      }
    }
    node {
      name: "dnn/input_from_feature_columns/input_layer/marital-status_indicator/hash_table_Lookup/LookupTableFindV2"
      op: "LookupTableFindV2"
      input: "dnn/input_from_feature_columns/input_layer/marital-status_indicator/marital-status_lookup/hash_table/hash_table"
      input: "dnn/input_from_feature_columns/input_layer/marital-status_indicator/to_sparse_input/values"
      input: "dnn/input_from_feature_columns/input_layer/marital-status_indicator/marital-status_lookup/hash_table/Const"
      attr {
        key: "Tin"
        value {
          type: DT_STRING
        }
      }
      attr {
        key: "Tout"
        value {
          type: DT_INT64
        }
      }
      attr {
        key: "_output_shapes"
        value {
          list {
            shape {
              dim {
                size: -1
              }
            }
          }
        }
      }
    }
    node {
      name: "dnn/input_from_feature_columns/input_layer/marital-status_indicator/SparseToDense/default_value"
      op: "Const"
      attr {
        key: "_output_shapes"
        value {
          list {
            shape {
            }
          }
        }
      }
      attr {
        key: "dtype"
        value {
          type: DT_INT64
        }
      }
      attr {
        key: "value"
        value {
          tensor {
            dtype: DT_INT64
            tensor_shape {
            }
            int64_val: -1
          }
        }
      }
    }
    node {
      name: "dnn/input_from_feature_columns/input_layer/marital-status_indicator/SparseToDense"
      op: "SparseToDense"
      input: "dnn/input_from_feature_columns/input_layer/marital-status_indicator/to_sparse_input/indices"
      input: "dnn/input_from_feature_columns/input_layer/marital-status_indicator/to_sparse_input/dense_shape"
      input: "dnn/input_from_feature_columns/input_layer/marital-status_indicator/hash_table_Lookup/LookupTableFindV2"
      input: "dnn/input_from_feature_columns/input_layer/marital-status_indicator/SparseToDense/default_value"
      attr {
        key: "T"
        value {
          type: DT_INT64
        }
      }
      attr {
        key: "Tindices"
        value {
          type: DT_INT64
        }
      }
      attr {
        key: "_output_shapes"
        value {
          list {
            shape {
              dim {
                size: -1
              }
              dim {
                size: 1
              }
            }
          }
        }
      }
    }
    node {
      name: "dnn/input_from_feature_columns/input_layer/marital-status_indicator/one_hot/Const"
      op: "Const"
      attr {
        key: "_output_shapes"
        value {
          list {
            shape {
            }
          }
        }
      }
      attr {
        key: "dtype"
        value {
          type: DT_FLOAT
        }
      }
      attr {
        key: "value"
        value {
          tensor {
            dtype: DT_FLOAT
            tensor_shape {
            }
            float_val: 1.0
          }
        }
      }
    }
    node {
      name: "dnn/input_from_feature_columns/input_layer/marital-status_indicator/one_hot/Const_1"
      op: "Const"
      attr {
        key: "_output_shapes"
        value {
          list {
            shape {
            }
          }
        }
      }
      attr {
        key: "dtype"
        value {
          type: DT_FLOAT
        }
      }
      attr {
        key: "value"
        value {
          tensor {
            dtype: DT_FLOAT
            tensor_shape {
            }
            float_val: 0.0
          }
        }
      }
    }
    node {
      name: "dnn/input_from_feature_columns/input_layer/marital-status_indicator/one_hot/depth"
      op: "Const"
      attr {
        key: "_output_shapes"
        value {
          list {
            shape {
            }
          }
        }
      }
      attr {
        key: "dtype"
        value {
          type: DT_INT32
        }
      }
      attr {
        key: "value"
        value {
          tensor {
            dtype: DT_INT32
            tensor_shape {
            }
            int_val: 7
          }
        }
      }
    }
    node {
      name: "dnn/input_from_feature_columns/input_layer/marital-status_indicator/one_hot"
      op: "OneHot"
      input: "dnn/input_from_feature_columns/input_layer/marital-status_indicator/SparseToDense"
      input: "dnn/input_from_feature_columns/input_layer/marital-status_indicator/one_hot/depth"
      input: "dnn/input_from_feature_columns/input_layer/marital-status_indicator/one_hot/Const"
      input: "dnn/input_from_feature_columns/input_layer/marital-status_indicator/one_hot/Const_1"
      attr {
        key: "T"
        value {
          type: DT_FLOAT
        }
      }
      attr {
        key: "_output_shapes"
        value {
          list {
            shape {
              dim {
                size: -1
              }
              dim {
                size: 1
              }
              dim {
                size: 7
              }
            }
          }
        }
      }
    }
    node {
      name: "dnn/input_from_feature_columns/input_layer/marital-status_indicator/Sum/reduction_indices"
      op: "Const"
      attr {
        key: "_output_shapes"
        value {
          list {
            shape {
              dim {
                size: 1
              }
            }
          }
        }
      }
      attr {
        key: "dtype"
        value {
          type: DT_INT32
        }
      }
      attr {
        key: "value"
        value {
          tensor {
            dtype: DT_INT32
            tensor_shape {
              dim {
                size: 1
              }
            }
            int_val: -2
          }
        }
      }
    }
    node {
      name: "dnn/input_from_feature_columns/input_layer/marital-status_indicator/Sum"
      op: "Sum"
      input: "dnn/input_from_feature_columns/input_layer/marital-status_indicator/one_hot"
      input: "dnn/input_from_feature_columns/input_layer/marital-status_indicator/Sum/reduction_indices"
      attr {
        key: "T"
        value {
          type: DT_FLOAT
        }
      }
      attr {
        key: "_output_shapes"
        value {
          list {
            shape {
              dim {
                size: -1
              }
              dim {
                size: 7
              }
            }
          }
        }
      }
    }
    node {
      name: "dnn/input_from_feature_columns/input_layer/marital-status_indicator/Shape"
      op: "Shape"
      input: "dnn/input_from_feature_columns/input_layer/marital-status_indicator/Sum"
      attr {
        key: "T"
        value {
          type: DT_FLOAT
        }
      }
      attr {
        key: "_output_shapes"
        value {
          list {
            shape {
              dim {
                size: 2
              }
            }
          }
        }
      }
    }
    node {
      name: "dnn/input_from_feature_columns/input_layer/marital-status_indicator/strided_slice/stack"
      op: "Const"
      attr {
        key: "_output_shapes"
        value {
          list {
            shape {
              dim {
                size: 1
              }
            }
          }
        }
      }
      attr {
        key: "dtype"
        value {
          type: DT_INT32
        }
      }
      attr {
        key: "value"
        value {
          tensor {
            dtype: DT_INT32
            tensor_shape {
              dim {
                size: 1
              }
            }
            int_val: 0
          }
        }
      }
    }
    node {
      name: "dnn/input_from_feature_columns/input_layer/marital-status_indicator/strided_slice/stack_1"
      op: "Const"
      attr {
        key: "_output_shapes"
        value {
          list {
            shape {
              dim {
                size: 1
              }
            }
…
/zero_fraction/cond/switch_t:0\nTlinear/zero_fraction/total_zero/zero_count_7/zero_fraction/counts_to_fraction/Cast:0\nVlinear/zero_fraction/total_zero/zero_count_7/zero_fraction/counts_to_fraction/Cast_1:0\nSlinear/zero_fraction/total_zero/zero_count_7/zero_fraction/counts_to_fraction/sub:0\nWlinear/zero_fraction/total_zero/zero_count_7/zero_fraction/counts_to_fraction/truediv:0\nElinear/zero_fraction/total_zero/zero_count_7/zero_fraction/fraction:0\022p\n6linear/zero_fraction/total_zero/zero_count_7/pred_id:0\0226linear/zero_fraction/total_zero/zero_count_7/pred_id:0\022\177\n)linear/linear_model/race/weights/part_0:0\022Rlinear/zero_fraction/total_zero/zero_count_7/zero_fraction/ReadVariableOp/Switch:0\022f\n(linear/zero_fraction/total_size/Size_7:0\022:linear/zero_fraction/total_zero/zero_count_7/Cast/Switch:02\376\n\n\373\n\nIlinear/zero_fraction/total_zero/zero_count_7/zero_fraction/cond/cond_text\022Ilinear/zero_fraction/total_zero/zero_count_7/zero_fraction/cond/pred_id:0\032Jlinear/zero_fraction/total_zero/zero_count_7/zero_fraction/cond/switch_t:0 \001*\224\t\nKlinear/zero_fraction/total_zero/zero_count_7/zero_fraction/ReadVariableOp:0\nFlinear/zero_fraction/total_zero/zero_count_7/zero_fraction/cond/Cast:0\nTlinear/zero_fraction/total_zero/zero_count_7/zero_fraction/cond/count_nonzero/Cast:0\nUlinear/zero_fraction/total_zero/zero_count_7/zero_fraction/cond/count_nonzero/Const:0\n_linear/zero_fraction/total_zero/zero_count_7/zero_fraction/cond/count_nonzero/NotEqual/Switch:1\nXlinear/zero_fraction/total_zero/zero_count_7/zero_fraction/cond/count_nonzero/NotEqual:0\n]linear/zero_fraction/total_zero/zero_count_7/zero_fraction/cond/count_nonzero/nonzero_count:0\nUlinear/zero_fraction/total_zero/zero_count_7/zero_fraction/cond/count_nonzero/zeros:0\nIlinear/zero_fraction/total_zero/zero_count_7/zero_fraction/cond/pred_id:0\nJlinear/zero_fraction/total_zero/zero_count_7/zero_fraction/cond/switch_t:0\022\226\001\nIlinear/zero_fraction/total_zero/zero_count_7/zero_fraction/cond/pred_id:0\022Ilinear/zero_fraction/total_zero/zero_count_7/zero_fraction/cond/pred_id:0\022\256\001\nKlinear/zero_fraction/total_zero/zero_count_7/zero_fraction/ReadVariableOp:0\022_linear/zero_fraction/total_zero/zero_count_7/zero_fraction/cond/count_nonzero/NotEqual/Switch:12\304\n\n\301\n\nKlinear/zero_fraction/total_zero/zero_count_7/zero_fraction/cond/cond_text_1\022Ilinear/zero_fraction/total_zero/zero_count_7/zero_fraction/cond/pred_id:0\032Jlinear/zero_fraction/total_zero/zero_count_7/zero_fraction/cond/switch_f:0*\332\010\nKlinear/zero_fraction/total_zero/zero_count_7/zero_fraction/ReadVariableOp:0\nVlinear/zero_fraction/total_zero/zero_count_7/zero_fraction/cond/count_nonzero_1/Cast:0\nWlinear/zero_fraction/total_zero/zero_count_7/zero_fraction/cond/count_nonzero_1/Const:0\nalinear/zero_fraction/total_zero/zero_count_7/zero_fraction/cond/count_nonzero_1/NotEqual/Switch:0\nZlinear/zero_fraction/total_zero/zero_count_7/zero_fraction/cond/count_nonzero_1/NotEqual:0\n_linear/zero_fraction/total_zero/zero_count_7/zero_fraction/cond/count_nonzero_1/nonzero_count:0\nWlinear/zero_fraction/total_zero/zero_count_7/zero_fraction/cond/count_nonzero_1/zeros:0\nIlinear/zero_fraction/total_zero/zero_count_7/zero_fraction/cond/pred_id:0\nJlinear/zero_fraction/total_zero/zero_count_7/zero_fraction/cond/switch_f:0\022\260\001\nKlinear/zero_fraction/total_zero/zero_count_7/zero_fraction/ReadVariableOp:0\022alinear/zero_fraction/total_zero/zero_count_7/zero_fraction/cond/count_nonzero_1/NotEqual/Switch:0\022\226\001\nIlinear/zero_fraction/total_zero/zero_count_7/zero_fraction/cond/pred_id:0\022Ilinear/zero_fraction/total_zero/zero_count_7/zero_fraction/cond/pred_id:0"
        value: "\n6linear/zero_fraction/total_zero/zero_count_8/cond_text\0226linear/zero_fraction/total_zero/zero_count_8/pred_id:0\0327linear/zero_fraction/total_zero/zero_count_8/switch_t:0 \001*\231\002\n4linear/zero_fraction/total_zero/zero_count_8/Const:0\n6linear/zero_fraction/total_zero/zero_count_8/pred_id:0\n7linear/zero_fraction/total_zero/zero_count_8/switch_t:0\022p\n6linear/zero_fraction/total_zero/zero_count_8/pred_id:0\0226linear/zero_fraction/total_zero/zero_count_8/pred_id:0"
        value: "\n8linear/zero_fraction/total_zero/zero_count_8/cond_text_1\0226linear/zero_fraction/total_zero/zero_count_8/pred_id:0\0327linear/zero_fraction/total_zero/zero_count_8/switch_f:0*\211\031\n1linear/linear_model/relationship/weights/part_0:0\n(linear/zero_fraction/total_size/Size_8:0\n:linear/zero_fraction/total_zero/zero_count_8/Cast/Switch:0\n3linear/zero_fraction/total_zero/zero_count_8/Cast:0\n2linear/zero_fraction/total_zero/zero_count_8/mul:0\n6linear/zero_fraction/total_zero/zero_count_8/pred_id:0\n7linear/zero_fraction/total_zero/zero_count_8/switch_f:0\nHlinear/zero_fraction/total_zero/zero_count_8/zero_fraction/LessEqual/y:0\nFlinear/zero_fraction/total_zero/zero_count_8/zero_fraction/LessEqual:0\nRlinear/zero_fraction/total_zero/zero_count_8/zero_fraction/ReadVariableOp/Switch:0\nKlinear/zero_fraction/total_zero/zero_count_8/zero_fraction/ReadVariableOp:0\nAlinear/zero_fraction/total_zero/zero_count_8/zero_fraction/Size:0\nFlinear/zero_fraction/total_zero/zero_count_8/zero_fraction/cond/Cast:0\nGlinear/zero_fraction/total_zero/zero_count_8/zero_fraction/cond/Merge:0\nGlinear/zero_fraction/total_zero/zero_count_8/zero_fraction/cond/Merge:1\nHlinear/zero_fraction/total_zero/zero_count_8/zero_fraction/cond/Switch:0\nHlinear/zero_fraction/total_zero/zero_count_8/zero_fraction/cond/Switch:1\nTlinear/zero_fraction/total_zero/zero_count_8/zero_fraction/cond/count_nonzero/Cast:0\nUlinear/zero_fraction/total_zero/zero_count_8/zero_fraction/cond/count_nonzero/Const:0\n_linear/zero_fraction/total_zero/zero_count_8/zero_fraction/cond/count_nonzero/NotEqual/Switch:1\nXlinear/zero_fraction/total_zero/zero_count_8/zero_fraction/cond/count_nonzero/NotEqual:0\n]linear/zero_fraction/total_zero/zero_count_8/zero_fraction/cond/count_nonzero/nonzero_count:0\nUlinear/zero_fraction/total_zero/zero_count_8/zero_fraction/cond/count_nonzero/zeros:0\nVlinear/zero_fraction/total_zero/zero_count_8/zero_fraction/cond/count_nonzero_1/Cast:0\nWlinear/zero_fraction/total_zero/zero_count_8/zero_fraction/cond/count_nonzero_1/Const:0\nalinear/zero_fraction/total_zero/zero_count_8/zero_fraction/cond/count_nonzero_1/NotEqual/Switch:0\nZlinear/zero_fraction/total_zero/zero_count_8/zero_fraction/cond/count_nonzero_1/NotEqual:0\n_linear/zero_fraction/total_zero/zero_count_8/zero_fraction/cond/count_nonzero_1/nonzero_count:0\nWlinear/zero_fraction/total_zero/zero_count_8/zero_fraction/cond/count_nonzero_1/zeros:0\nIlinear/zero_fraction/total_zero/zero_count_8/zero_fraction/cond/pred_id:0\nJlinear/zero_fraction/total_zero/zero_count_8/zero_fraction/cond/switch_f:0\nJlinear/zero_fraction/total_zero/zero_count_8/zero_fraction/cond/switch_t:0\nTlinear/zero_fraction/total_zero/zero_count_8/zero_fraction/counts_to_fraction/Cast:0\nVlinear/zero_fraction/total_zero/zero_count_8/zero_fraction/counts_to_fraction/Cast_1:0\nSlinear/zero_fraction/total_zero/zero_count_8/zero_fraction/counts_to_fraction/sub:0\nWlinear/zero_fraction/total_zero/zero_count_8/zero_fraction/counts_to_fraction/truediv:0\nElinear/zero_fraction/total_zero/zero_count_8/zero_fraction/fraction:0\022p\n6linear/zero_fraction/total_zero/zero_count_8/pred_id:0\0226linear/zero_fraction/total_zero/zero_count_8/pred_id:0\022\207\001\n1linear/linear_model/relationship/weights/part_0:0\022Rlinear/zero_fraction/total_zero/zero_count_8/zero_fraction/ReadVariableOp/Switch:0\022f\n(linear/zero_fraction/total_size/Size_8:0\022:linear/zero_fraction/total_zero/zero_count_8/Cast/Switch:02\376\n\n\373\n\nIlinear/zero_fraction/total_zero/zero_count_8/zero_fraction/cond/cond_text\022Ilinear/zero_fraction/total_zero/zero_count_8/zero_fraction/cond/pred_id:0\032Jlinear/zero_fraction/total_zero/zero_count_8/zero_fraction/cond/switch_t:0 \001*\224\t\nKlinear/zero_fraction/total_zero/zero_count_8/zero_fraction/ReadVariableOp:0\nFlinear/zero_fraction/total_zero/zero_count_8/zero_fraction/cond/Cast:0\nTlinear/zero_fraction/total_zero/zero_count_8/zero_fraction/cond/count_nonzero/Cast:0\nUlinear/zero_fraction/total_zero/zero_count_8/zero_fraction/cond/count_nonzero/Const:0\n_linear/zero_fraction/total_zero/zero_count_8/zero_fraction/cond/count_nonzero/NotEqual/Switch:1\nXlinear/zero_fraction/total_zero/zero_count_8/zero_fraction/cond/count_nonzero/NotEqual:0\n]linear/zero_fraction/total_zero/zero_count_8/zero_fraction/cond/count_nonzero/nonzero_count:0\nUlinear/zero_fraction/total_zero/zero_count_8/zero_fraction/cond/count_nonzero/zeros:0\nIlinear/zero_fraction/total_zero/zero_count_8/zero_fraction/cond/pred_id:0\nJlinear/zero_fraction/total_zero/zero_count_8/zero_fraction/cond/switch_t:0\022\226\001\nIlinear/zero_fraction/total_zero/zero_count_8/zero_fraction/cond/pred_id:0\022Ilinear/zero_fraction/total_zero/zero_count_8/zero_fraction/cond/pred_id:0\022\256\001\nKlinear/zero_fraction/total_zero/zero_count_8/zero_fraction/ReadVariableOp:0\022_linear/zero_fraction/total_zero/zero_count_8/zero_fraction/cond/count_nonzero/NotEqual/Switch:12\304\n\n\301\n\nKlinear/zero_fraction/total_zero/zero_count_8/zero_fraction/cond/cond_text_1\022Ilinear/zero_fraction/total_zero/zero_count_8/zero_fraction/cond/pred_id:0\032Jlinear/zero_fraction/total_zero/zero_count_8/zero_fraction/cond/switch_f:0*\332\010\nKlinear/zero_fraction/total_zero/zero_count_8/zero_fraction/ReadVariableOp:0\nVlinear/zero_fraction/total_zero/zero_count_8/zero_fraction/cond/count_nonzero_1/Cast:0\nWlinear/zero_fraction/total_zero/zero_count_8/zero_fraction/cond/count_nonzero_1/Const:0\nalinear/zero_fraction/total_zero/zero_count_8/zero_fraction/cond/count_nonzero_1/NotEqual/Switch:0\nZlinear/zero_fraction/total_zero/zero_count_8/zero_fraction/cond/count_nonzero_1/NotEqual:0\n_linear/zero_fraction/total_zero/zero_count_8/zero_fraction/cond/count_nonzero_1/nonzero_count:0\nWlinear/zero_fraction/total_zero/zero_count_8/zero_fraction/cond/count_nonzero_1/zeros:0\nIlinear/zero_fraction/total_zero/zero_count_8/zero_fraction/cond/pred_id:0\nJlinear/zero_fraction/total_zero/zero_count_8/zero_fraction/cond/switch_f:0\022\226\001\nIlinear/zero_fraction/total_zero/zero_count_8/zero_fraction/cond/pred_id:0\022Ilinear/zero_fraction/total_zero/zero_count_8/zero_fraction/cond/pred_id:0\022\260\001\nKlinear/zero_fraction/total_zero/zero_count_8/zero_fraction/ReadVariableOp:0\022alinear/zero_fraction/total_zero/zero_count_8/zero_fraction/cond/count_nonzero_1/NotEqual/Switch:0"
        value: "\n6linear/zero_fraction/total_zero/zero_count_9/cond_text\0226linear/zero_fraction/total_zero/zero_count_9/pred_id:0\0327linear/zero_fraction/total_zero/zero_count_9/switch_t:0 \001*\231\002\n4linear/zero_fraction/total_zero/zero_count_9/Const:0\n6linear/zero_fraction/total_zero/zero_count_9/pred_id:0\n7linear/zero_fraction/total_zero/zero_count_9/switch_t:0\022p\n6linear/zero_fraction/total_zero/zero_count_9/pred_id:0\0226linear/zero_fraction/total_zero/zero_count_9/pred_id:0"
        value: "\n8linear/zero_fraction/total_zero/zero_count_9/cond_text_1\0226linear/zero_fraction/total_zero/zero_count_9/pred_id:0\0327linear/zero_fraction/total_zero/zero_count_9/switch_f:0*\366\030\n(linear/linear_model/sex/weights/part_0:0\n(linear/zero_fraction/total_size/Size_9:0\n:linear/zero_fraction/total_zero/zero_count_9/Cast/Switch:0\n3linear/zero_fraction/total_zero/zero_count_9/Cast:0\n2linear/zero_fraction/total_zero/zero_count_9/mul:0\n6linear/zero_fraction/total_zero/zero_count_9/pred_id:0\n7linear/zero_fraction/total_zero/zero_count_9/switch_f:0\nHlinear/zero_fraction/total_zero/zero_count_9/zero_fraction/LessEqual/y:0\nFlinear/zero_fraction/total_zero/zero_count_9/zero_fraction/LessEqual:0\nRlinear/zero_fraction/total_zero/zero_count_9/zero_fraction/ReadVariableOp/Switch:0\nKlinear/zero_fraction/total_zero/zero_count_9/zero_fraction/ReadVariableOp:0\nAlinear/zero_fraction/total_zero/zero_count_9/zero_fraction/Size:0\nFlinear/zero_fraction/total_zero/zero_count_9/zero_fraction/cond/Cast:0\nGlinear/zero_fraction/total_zero/zero_count_9/zero_fraction/cond/Merge:0\nGlinear/zero_fraction/total_zero/zero_count_9/zero_fraction/cond/Merge:1\nHlinear/zero_fraction/total_zero/zero_count_9/zero_fraction/cond/Switch:0\nHlinear/zero_fraction/total_zero/zero_count_9/zero_fraction/cond/Switch:1\nTlinear/zero_fraction/total_zero/zero_count_9/zero_fraction/cond/count_nonzero/Cast:0\nUlinear/zero_fraction/total_zero/zero_count_9/zero_fraction/cond/count_nonzero/Const:0\n_linear/zero_fraction/total_zero/zero_count_9/zero_fraction/cond/count_nonzero/NotEqual/Switch:1\nXlinear/zero_fraction/total_zero/zero_count_9/zero_fraction/cond/count_nonzero/NotEqual:0\n]linear/zero_fraction/total_zero/zero_count_9/zero_fraction/cond/count_nonzero/nonzero_count:0\nUlinear/zero_fraction/total_zero/zero_count_9/zero_fraction/cond/count_nonzero/zeros:0\nVlinear/zero_fraction/total_zero/zero_count_9/zero_fraction/cond/count_nonzero_1/Cast:0\nWlinear/zero_fraction/total_zero/zero_count_9/zero_fraction/cond/count_nonzero_1/Const:0\nalinear/zero_fraction/total_zero/zero_count_9/zero_fraction/cond/count_nonzero_1/NotEqual/Switch:0\nZlinear/zero_fraction/total_zero/zero_count_9/zero_fraction/cond/count_nonzero_1/NotEqual:0\n_linear/zero_fraction/total_zero/zero_count_9/zero_fraction/cond/count_nonzero_1/nonzero_count:0\nWlinear/zero_fraction/total_zero/zero_count_9/zero_fraction/cond/count_nonzero_1/zeros:0\nIlinear/zero_fraction/total_zero/zero_count_9/zero_fraction/cond/pred_id:0\nJlinear/zero_fraction/total_zero/zero_count_9/zero_fraction/cond/switch_f:0\nJlinear/zero_fraction/total_zero/zero_count_9/zero_fraction/cond/switch_t:0\nTlinear/zero_fraction/total_zero/zero_count_9/zero_fraction/counts_to_fraction/Cast:0\nVlinear/zero_fraction/total_zero/zero_count_9/zero_fraction/counts_to_fraction/Cast_1:0\nSlinear/zero_fraction/total_zero/zero_count_9/zero_fraction/counts_to_fraction/sub:0\nWlinear/zero_fraction/total_zero/zero_count_9/zero_fraction/counts_to_fraction/truediv:0\nElinear/zero_fraction/total_zero/zero_count_9/zero_fraction/fraction:0\022~\n(linear/linear_model/sex/weights/part_0:0\022Rlinear/zero_fraction/total_zero/zero_count_9/zero_fraction/ReadVariableOp/Switch:0\022f\n(linear/zero_fraction/total_size/Size_9:0\022:linear/zero_fraction/total_zero/zero_count_9/Cast/Switch:0\022p\n6linear/zero_fraction/total_zero/zero_count_9/pred_id:0\0226linear/zero_fraction/total_zero/zero_count_9/pred_id:02\376\n\n\373\n\nIlinear/zero_fraction/total_zero/zero_count_9/zero_fraction/cond/cond_text\022Ilinear/zero_fraction/total_zero/zero_count_9/zero_fraction/cond/pred_id:0\032Jlinear/zero_fraction/total_zero/zero_count_9/zero_fraction/cond/switch_t:0 \001*\224\t\nKlinear/zero_fraction/total_zero/zero_count_9/zero_fraction/ReadVariableOp:0\nFlinear/zero_fraction/total_zero/zero_count_9/zero_fraction/cond/Cast:0\nTlinear/zero_fraction/total_zero/zero_count_9/zero_fraction/cond/count_nonzero/Cast:0\nUlinear/zero_fraction/total_zero/zero_count_9/zero_fraction/cond/count_nonzero/Const:0\n_linear/zero_fraction/total_zero/zero_count_9/zero_fraction/cond/count_nonzero/NotEqual/Switch:1\nXlinear/zero_fraction/total_zero/zero_count_9/zero_fraction/cond/count_nonzero/NotEqual:0\n]linear/zero_fraction/total_zero/zero_count_9/zero_fraction/cond/count_nonzero/nonzero_count:0\nUlinear/zero_fraction/total_zero/zero_count_9/zero_fraction/cond/count_nonzero/zeros:0\nIlinear/zero_fraction/total_zero/zero_count_9/zero_fraction/cond/pred_id:0\nJlinear/zero_fraction/total_zero/zero_count_9/zero_fraction/cond/switch_t:0\022\256\001\nKlinear/zero_fraction/total_zero/zero_count_9/zero_fraction/ReadVariableOp:0\022_linear/zero_fraction/total_zero/zero_count_9/zero_fraction/cond/count_nonzero/NotEqual/Switch:1\022\226\001\nIlinear/zero_fraction/total_zero/zero_count_9/zero_fraction/cond/pred_id:0\022Ilinear/zero_fraction/total_zero/zero_count_9/zero_fraction/cond/pred_id:02\304\n\n\301\n\nKlinear/zero_fraction/total_zero/zero_count_9/zero_fraction/cond/cond_text_1\022Ilinear/zero_fraction/total_zero/zero_count_9/zero_fraction/cond/pred_id:0\032Jlinear/zero_fraction/total_zero/zero_count_9/zero_fraction/cond/switch_f:0*\332\010\nKlinear/zero_fraction/total_zero/zero_count_9/zero_fraction/ReadVariableOp:0\nVlinear/zero_fraction/total_zero/zero_count_9/zero_fraction/cond/count_nonzero_1/Cast:0\nWlinear/zero_fraction/total_zero/zero_count_9/zero_fraction/cond/count_nonzero_1/Const:0\nalinear/zero_fraction/total_zero/zero_count_9/zero_fraction/cond/count_nonzero_1/NotEqual/Switch:0\nZlinear/zero_fraction/total_zero/zero_count_9/zero_fraction/cond/count_nonzero_1/NotEqual:0\n_linear/zero_fraction/total_zero/zero_count_9/zero_fraction/cond/count_nonzero_1/nonzero_count:0\nWlinear/zero_fraction/total_zero/zero_count_9/zero_fraction/cond/count_nonzero_1/zeros:0\nIlinear/zero_fraction/total_zero/zero_count_9/zero_fraction/cond/pred_id:0\nJlinear/zero_fraction/total_zero/zero_count_9/zero_fraction/cond/switch_f:0\022\260\001\nKlinear/zero_fraction/total_zero/zero_count_9/zero_fraction/ReadVariableOp:0\022alinear/zero_fraction/total_zero/zero_count_9/zero_fraction/cond/count_nonzero_1/NotEqual/Switch:0\022\226\001\nIlinear/zero_fraction/total_zero/zero_count_9/zero_fraction/cond/pred_id:0\022Ilinear/zero_fraction/total_zero/zero_count_9/zero_fraction/cond/pred_id:0"
        value: "\n7linear/zero_fraction/total_zero/zero_count_10/cond_text\0227linear/zero_fraction/total_zero/zero_count_10/pred_id:0\0328linear/zero_fraction/total_zero/zero_count_10/switch_t:0 \001*\236\002\n5linear/zero_fraction/total_zero/zero_count_10/Const:0\n7linear/zero_fraction/total_zero/zero_count_10/pred_id:0\n8linear/zero_fraction/total_zero/zero_count_10/switch_t:0\022r\n7linear/zero_fraction/total_zero/zero_count_10/pred_id:0\0227linear/zero_fraction/total_zero/zero_count_10/pred_id:0"
        value: "\n9linear/zero_fraction/total_zero/zero_count_10/cond_text_1\0227linear/zero_fraction/total_zero/zero_count_10/pred_id:0\0328linear/zero_fraction/total_zero/zero_count_10/switch_f:0*\254\031\n.linear/linear_model/workclass/weights/part_0:0\n)linear/zero_fraction/total_size/Size_10:0\n;linear/zero_fraction/total_zero/zero_count_10/Cast/Switch:0\n4linear/zero_fraction/total_zero/zero_count_10/Cast:0\n3linear/zero_fraction/total_zero/zero_count_10/mul:0\n7linear/zero_fraction/total_zero/zero_count_10/pred_id:0\n8linear/zero_fraction/total_zero/zero_count_10/switch_f:0\nIlinear/zero_fraction/total_zero/zero_count_10/zero_fraction/LessEqual/y:0\nGlinear/zero_fraction/total_zero/zero_count_10/zero_fraction/LessEqual:0\nSlinear/zero_fraction/total_zero/zero_count_10/zero_fraction/ReadVariableOp/Switch:0\nLlinear/zero_fraction/total_zero/zero_count_10/zero_fraction/ReadVariableOp:0\nBlinear/zero_fraction/total_zero/zero_count_10/zero_fraction/Size:0\nGlinear/zero_fraction/total_zero/zero_count_10/zero_fraction/cond/Cast:0\nHlinear/zero_fraction/total_zero/zero_count_10/zero_fraction/cond/Merge:0\nHlinear/zero_fraction/total_zero/zero_count_10/zero_fraction/cond/Merge:1\nIlinear/zero_fraction/total_zero/zero_count_10/zero_fraction/cond/Switch:0\nIlinear/zero_fraction/total_zero/zero_count_10/zero_fraction/cond/Switch:1\nUlinear/zero_fraction/total_zero/zero_count_10/zero_fraction/cond/count_nonzero/Cast:0\nVlinear/zero_fraction/total_zero/zero_count_10/zero_fraction/cond/count_nonzero/Const:0\n`linear/zero_fraction/total_zero/zero_count_10/zero_fraction/cond/count_nonzero/NotEqual/Switch:1\nYlinear/zero_fraction/total_zero/zero_count_10/zero_fraction/cond/count_nonzero/NotEqual:0\n^linear/zero_fraction/total_zero/zero_count_10/zero_fraction/cond/count_nonzero/nonzero_count:0\nVlinear/zero_fraction/total_zero/zero_count_10/zero_fraction/cond/count_nonzero/zeros:0\nWlinear/zero_fraction/total_zero/zero_count_10/zero_fraction/cond/count_nonzero_1/Cast:0\nXlinear/zero_fraction/total_zero/zero_count_10/zero_fraction/cond/count_nonzero_1/Const:0\nblinear/zero_fraction/total_zero/zero_count_10/zero_fraction/cond/count_nonzero_1/NotEqual/Switch:0\n[linear/zero_fraction/total_zero/zero_count_10/zero_fraction/cond/count_nonzero_1/NotEqual:0\n`linear/zero_fraction/total_zero/zero_count_10/zero_fraction/cond/count_nonzero_1/nonzero_count:0\nXlinear/zero_fraction/total_zero/zero_count_10/zero_fraction/cond/count_nonzero_1/zeros:0\nJlinear/zero_fraction/total_zero/zero_count_10/zero_fraction/cond/pred_id:0\nKlinear/zero_fraction/total_zero/zero_count_10/zero_fraction/cond/switch_f:0\nKlinear/zero_fraction/total_zero/zero_count_10/zero_fraction/cond/switch_t:0\nUlinear/zero_fraction/total_zero/zero_count_10/zero_fraction/counts_to_fraction/Cast:0\nWlinear/zero_fraction/total_zero/zero_count_10/zero_fraction/counts_to_fraction/Cast_1:0\nTlinear/zero_fraction/total_zero/zero_count_10/zero_fraction/counts_to_fraction/sub:0\nXlinear/zero_fraction/total_zero/zero_count_10/zero_fraction/counts_to_fraction/truediv:0\nFlinear/zero_fraction/total_zero/zero_count_10/zero_fraction/fraction:0\022r\n7linear/zero_fraction/total_zero/zero_count_10/pred_id:0\0227linear/zero_fraction/total_zero/zero_count_10/pred_id:0\022\205\001\n.linear/linear_model/workclass/weights/part_0:0\022Slinear/zero_fraction/total_zero/zero_count_10/zero_fraction/ReadVariableOp/Switch:0\022h\n)linear/zero_fraction/total_size/Size_10:0\022;linear/zero_fraction/total_zero/zero_count_10/Cast/Switch:02\217\013\n\214\013\nJlinear/zero_fraction/total_zero/zero_count_10/zero_fraction/cond/cond_text\022Jlinear/zero_fraction/total_zero/zero_count_10/zero_fraction/cond/pred_id:0\032Klinear/zero_fraction/total_zero/zero_count_10/zero_fraction/cond/switch_t:0 \001*\242\t\nLlinear/zero_fraction/total_zero/zero_count_10/zero_fraction/ReadVariableOp:0\nGlinear/zero_fraction/total_zero/zero_count_10/zero_fraction/cond/Cast:0\nUlinear/zero_fraction/total_zero/zero_count_10/zero_fraction/cond/count_nonzero/Cast:0\nVlinear/zero_fraction/total_zero/zero_count_10/zero_fraction/cond/count_nonzero/Const:0\n`linear/zero_fraction/total_zero/zero_count_10/zero_fraction/cond/count_nonzero/NotEqual/Switch:1\nYlinear/zero_fraction/total_zero/zero_count_10/zero_fraction/cond/count_nonzero/NotEqual:0\n^linear/zero_fraction/total_zero/zero_count_10/zero_fraction/cond/count_nonzero/nonzero_count:0\nVlinear/zero_fraction/total_zero/zero_count_10/zero_fraction/cond/count_nonzero/zeros:0\nJlinear/zero_fraction/total_zero/zero_count_10/zero_fraction/cond/pred_id:0\nKlinear/zero_fraction/total_zero/zero_count_10/zero_fraction/cond/switch_t:0\022\260\001\nLlinear/zero_fraction/total_zero/zero_count_10/zero_fraction/ReadVariableOp:0\022`linear/zero_fraction/total_zero/zero_count_10/zero_fraction/cond/count_nonzero/NotEqual/Switch:1\022\230\001\nJlinear/zero_fraction/total_zero/zero_count_10/zero_fraction/cond/pred_id:0\022Jlinear/zero_fraction/total_zero/zero_count_10/zero_fraction/cond/pred_id:02\324\n\n\321\n\nLlinear/zero_fraction/total_zero/zero_count_10/zero_fraction/cond/cond_text_1\022Jlinear/zero_fraction/total_zero/zero_count_10/zero_fraction/cond/pred_id:0\032Klinear/zero_fraction/total_zero/zero_count_10/zero_fraction/cond/switch_f:0*\347\010\nLlinear/zero_fraction/total_zero/zero_count_10/zero_fraction/ReadVariableOp:0\nWlinear/zero_fraction/total_zero/zero_count_10/zero_fraction/cond/count_nonzero_1/Cast:0\nXlinear/zero_fraction/total_zero/zero_count_10/zero_fraction/cond/count_nonzero_1/Const:0\nblinear/zero_fraction/total_zero/zero_count_10/zero_fraction/cond/count_nonzero_1/NotEqual/Switch:0\n[linear/zero_fraction/total_zero/zero_count_10/zero_fraction/cond/count_nonzero_1/NotEqual:0\n`linear/zero_fraction/total_zero/zero_count_10/zero_fraction/cond/count_nonzero_1/nonzero_count:0\nXlinear/zero_fraction/total_zero/zero_count_10/zero_fraction/cond/count_nonzero_1/zeros:0\nJlinear/zero_fraction/total_zero/zero_count_10/zero_fraction/cond/pred_id:0\nKlinear/zero_fraction/total_zero/zero_count_10/zero_fraction/cond/switch_f:0\022\262\001\nLlinear/zero_fraction/total_zero/zero_count_10/zero_fraction/ReadVariableOp:0\022blinear/zero_fraction/total_zero/zero_count_10/zero_fraction/cond/count_nonzero_1/NotEqual/Switch:0\022\230\001\nJlinear/zero_fraction/total_zero/zero_count_10/zero_fraction/cond/pred_id:0\022Jlinear/zero_fraction/total_zero/zero_count_10/zero_fraction/cond/pred_id:0"
        value: "\n%linear/zero_fraction_1/cond/cond_text\022%linear/zero_fraction_1/cond/pred_id:0\032&linear/zero_fraction_1/cond/switch_t:0 \001*\304\005\n<linear/linear_model/linear_model/linear_model/weighted_sum:0\n\"linear/zero_fraction_1/cond/Cast:0\n0linear/zero_fraction_1/cond/count_nonzero/Cast:0\n1linear/zero_fraction_1/cond/count_nonzero/Const:0\n;linear/zero_fraction_1/cond/count_nonzero/NotEqual/Switch:1\n4linear/zero_fraction_1/cond/count_nonzero/NotEqual:0\n9linear/zero_fraction_1/cond/count_nonzero/nonzero_count:0\n1linear/zero_fraction_1/cond/count_nonzero/zeros:0\n%linear/zero_fraction_1/cond/pred_id:0\n&linear/zero_fraction_1/cond/switch_t:0\022N\n%linear/zero_fraction_1/cond/pred_id:0\022%linear/zero_fraction_1/cond/pred_id:0\022{\n<linear/linear_model/linear_model/linear_model/weighted_sum:0\022;linear/zero_fraction_1/cond/count_nonzero/NotEqual/Switch:1"
        value: "\n\'linear/zero_fraction_1/cond/cond_text_1\022%linear/zero_fraction_1/cond/pred_id:0\032&linear/zero_fraction_1/cond/switch_f:0*\256\005\n<linear/linear_model/linear_model/linear_model/weighted_sum:0\n2linear/zero_fraction_1/cond/count_nonzero_1/Cast:0\n3linear/zero_fraction_1/cond/count_nonzero_1/Const:0\n=linear/zero_fraction_1/cond/count_nonzero_1/NotEqual/Switch:0\n6linear/zero_fraction_1/cond/count_nonzero_1/NotEqual:0\n;linear/zero_fraction_1/cond/count_nonzero_1/nonzero_count:0\n3linear/zero_fraction_1/cond/count_nonzero_1/zeros:0\n%linear/zero_fraction_1/cond/pred_id:0\n&linear/zero_fraction_1/cond/switch_f:0\022}\n<linear/linear_model/linear_model/linear_model/weighted_sum:0\022=linear/zero_fraction_1/cond/count_nonzero_1/NotEqual/Switch:0\022N\n%linear/zero_fraction_1/cond/pred_id:0\022%linear/zero_fraction_1/cond/pred_id:0"
      }
    }
  }
  collection_def {
    key: "global_step"
    value {
      bytes_list {
        value: "\n\rglobal_step:0\022\022global_step/Assign\032\022global_step/read:02\037global_step/Initializer/zeros:0H\003"
      }
    }
  }
  collection_def {
    key: "saved_model_main_op"
    value {
      node_list {
        value: "group_deps"
      }
    }
  }
  collection_def {
    key: "summaries"
    value {
      node_list {
        value: "dnn/dnn/hiddenlayer_0/fraction_of_zero_values:0"
        value: "dnn/dnn/hiddenlayer_0/activation:0"
        value: "dnn/dnn/hiddenlayer_1/fraction_of_zero_values:0"
        value: "dnn/dnn/hiddenlayer_1/activation:0"
        value: "dnn/dnn/hiddenlayer_2/fraction_of_zero_values:0"
        value: "dnn/dnn/hiddenlayer_2/activation:0"
        value: "dnn/dnn/hiddenlayer_3/fraction_of_zero_values:0"
        value: "dnn/dnn/hiddenlayer_3/activation:0"
        value: "dnn/dnn/logits/fraction_of_zero_values:0"
        value: "dnn/dnn/logits/activation:0"
        value: "linear/bias:0"
        value: "linear/fraction_of_zero_weights:0"
        value: "linear/linear/fraction_of_zero_values:0"
        value: "linear/linear/activation:0"
      }
    }
  }
  collection_def {
    key: "table_initializer"
    value {
      node_list {
        value: "dnn/input_from_feature_columns/input_layer/education_indicator/education_lookup/hash_table/table_init/LookupTableImportV2"
        value: "dnn/input_from_feature_columns/input_layer/marital-status_indicator/marital-status_lookup/hash_table/table_init/LookupTableImportV2"
        value: "dnn/input_from_feature_columns/input_layer/occupation_indicator/occupation_lookup/hash_table/table_init/LookupTableImportV2"
        value: "dnn/input_from_feature_columns/input_layer/race_indicator/race_lookup/hash_table/table_init/LookupTableImportV2"
        value: "dnn/input_from_feature_columns/input_layer/relationship_indicator/relationship_lookup/hash_table/table_init/LookupTableImportV2"
        value: "dnn/input_from_feature_columns/input_layer/sex_indicator/sex_lookup/hash_table/table_init/LookupTableImportV2"
        value: "dnn/input_from_feature_columns/input_layer/workclass_indicator/workclass_lookup/hash_table/table_init/LookupTableImportV2"
        value: "linear/linear_model/linear_model/linear_model/education/education_lookup/hash_table/table_init/LookupTableImportV2"
        value: "linear/linear_model/linear_model/linear_model/marital-status/marital-status_lookup/hash_table/table_init/LookupTableImportV2"
        value: "linear/linear_model/linear_model/linear_model/occupation/occupation_lookup/hash_table/table_init/LookupTableImportV2"
        value: "linear/linear_model/linear_model/linear_model/race/race_lookup/hash_table/table_init/LookupTableImportV2"
        value: "linear/linear_model/linear_model/linear_model/relationship/relationship_lookup/hash_table/table_init/LookupTableImportV2"
        value: "linear/linear_model/linear_model/linear_model/sex/sex_lookup/hash_table/table_init/LookupTableImportV2"
        value: "linear/linear_model/linear_model/linear_model/workclass/workclass_lookup/hash_table/table_init/LookupTableImportV2"
      }
    }
  }
  collection_def {
    key: "trainable_variables"
    value {
      bytes_list {
        value: "\n!dnn/hiddenlayer_0/kernel/part_0:0\022&dnn/hiddenlayer_0/kernel/part_0/Assign\0325dnn/hiddenlayer_0/kernel/part_0/Read/ReadVariableOp:0\"&\n\030dnn/hiddenlayer_0/kernel\022\002Ad\032\002\000\000\"\002Ad(\0012<dnn/hiddenlayer_0/kernel/part_0/Initializer/random_uniform:08\001"
        value: "\n\037dnn/hiddenlayer_0/bias/part_0:0\022$dnn/hiddenlayer_0/bias/part_0/Assign\0323dnn/hiddenlayer_0/bias/part_0/Read/ReadVariableOp:0\"!\n\026dnn/hiddenlayer_0/bias\022\001d\032\001\000\"\001d(\00121dnn/hiddenlayer_0/bias/part_0/Initializer/zeros:08\001"
        value: "\n!dnn/hiddenlayer_1/kernel/part_0:0\022&dnn/hiddenlayer_1/kernel/part_0/Assign\0325dnn/hiddenlayer_1/kernel/part_0/Read/ReadVariableOp:0\"&\n\030dnn/hiddenlayer_1/kernel\022\002dK\032\002\000\000\"\002dK(\0012<dnn/hiddenlayer_1/kernel/part_0/Initializer/random_uniform:08\001"
        value: "\n\037dnn/hiddenlayer_1/bias/part_0:0\022$dnn/hiddenlayer_1/bias/part_0/Assign\0323dnn/hiddenlayer_1/bias/part_0/Read/ReadVariableOp:0\"!\n\026dnn/hiddenlayer_1/bias\022\001K\032\001\000\"\001K(\00121dnn/hiddenlayer_1/bias/part_0/Initializer/zeros:08\001"
        value: "\n!dnn/hiddenlayer_2/kernel/part_0:0\022&dnn/hiddenlayer_2/kernel/part_0/Assign\0325dnn/hiddenlayer_2/kernel/part_0/Read/ReadVariableOp:0\"&\n\030dnn/hiddenlayer_2/kernel\022\002K2\032\002\000\000\"\002K2(\0012<dnn/hiddenlayer_2/kernel/part_0/Initializer/random_uniform:08\001"
        value: "\n\037dnn/hiddenlayer_2/bias/part_0:0\022$dnn/hiddenlayer_2/bias/part_0/Assign\0323dnn/hiddenlayer_2/bias/part_0/Read/ReadVariableOp:0\"!\n\026dnn/hiddenlayer_2/bias\022\0012\032\001\000\"\0012(\00121dnn/hiddenlayer_2/bias/part_0/Initializer/zeros:08\001"
        value: "\n!dnn/hiddenlayer_3/kernel/part_0:0\022&dnn/hiddenlayer_3/kernel/part_0/Assign\0325dnn/hiddenlayer_3/kernel/part_0/Read/ReadVariableOp:0\"&\n\030dnn/hiddenlayer_3/kernel\022\0022\031\032\002\000\000\"\0022\031(\0012<dnn/hiddenlayer_3/kernel/part_0/Initializer/random_uniform:08\001"
        value: "\n\037dnn/hiddenlayer_3/bias/part_0:0\022$dnn/hiddenlayer_3/bias/part_0/Assign\0323dnn/hiddenlayer_3/bias/part_0/Read/ReadVariableOp:0\"!\n\026dnn/hiddenlayer_3/bias\022\001\031\032\001\000\"\001\031(\00121dnn/hiddenlayer_3/bias/part_0/Initializer/zeros:08\001"
        value: "\n\032dnn/logits/kernel/part_0:0\022\037dnn/logits/kernel/part_0/Assign\032.dnn/logits/kernel/part_0/Read/ReadVariableOp:0\"\037\n\021dnn/logits/kernel\022\002\031\001\032\002\000\000\"\002\031\001(\00125dnn/logits/kernel/part_0/Initializer/random_uniform:08\001"
        value: "\n\030dnn/logits/bias/part_0:0\022\035dnn/logits/bias/part_0/Assign\032,dnn/logits/bias/part_0/Read/ReadVariableOp:0\"\032\n\017dnn/logits/bias\022\001\001\032\001\000\"\001\001(\0012*dnn/logits/bias/part_0/Initializer/zeros:08\001"
        value: "\nMlinear/linear_model/age_bucketized_X_capital-gain_bucketized/weights/part_0:0\022Rlinear/linear_model/age_bucketized_X_capital-gain_bucketized/weights/part_0/Assign\032alinear/linear_model/age_bucketized_X_capital-gain_bucketized/weights/part_0/Read/ReadVariableOp:0\"R\nDlinear/linear_model/age_bucketized_X_capital-gain_bucketized/weights\022\002\n\001\032\002\000\000\"\002\n\001(\0012_linear/linear_model/age_bucketized_X_capital-gain_bucketized/weights/part_0/Initializer/zeros:08\001"
        value: "\nNlinear/linear_model/age_bucketized_X_education-num_bucketized/weights/part_0:0\022Slinear/linear_model/age_bucketized_X_education-num_bucketized/weights/part_0/Assign\032blinear/linear_model/age_bucketized_X_education-num_bucketized/weights/part_0/Read/ReadVariableOp:0\"S\nElinear/linear_model/age_bucketized_X_education-num_bucketized/weights\022\002\n\001\032\002\000\000\"\002\n\001(\0012`linear/linear_model/age_bucketized_X_education-num_bucketized/weights/part_0/Initializer/zeros:08\001"
        value: "\nXlinear/linear_model/capital-loss_bucketized_X_hours-per-week_bucketized/weights/part_0:0\022]linear/linear_model/capital-loss_bucketized_X_hours-per-week_bucketized/weights/part_0/Assign\032llinear/linear_model/capital-loss_bucketized_X_hours-per-week_bucketized/weights/part_0/Read/ReadVariableOp:0\"]\nOlinear/linear_model/capital-loss_bucketized_X_hours-per-week_bucketized/weights\022\002\n\001\032\002\000\000\"\002\n\001(\0012jlinear/linear_model/capital-loss_bucketized_X_hours-per-week_bucketized/weights/part_0/Initializer/zeros:08\001"
        value: "\n.linear/linear_model/education/weights/part_0:0\0223linear/linear_model/education/weights/part_0/Assign\032Blinear/linear_model/education/weights/part_0/Read/ReadVariableOp:0\"3\n%linear/linear_model/education/weights\022\002\020\001\032\002\000\000\"\002\020\001(\0012@linear/linear_model/education/weights/part_0/Initializer/zeros:08\001"
        value: "\nYlinear/linear_model/education-num_bucketized_X_hours-per-week_bucketized/weights/part_0:0\022^linear/linear_model/education-num_bucketized_X_hours-per-week_bucketized/weights/part_0/Assign\032mlinear/linear_model/education-num_bucketized_X_hours-per-week_bucketized/weights/part_0/Read/ReadVariableOp:0\"^\nPlinear/linear_model/education-num_bucketized_X_hours-per-week_bucketized/weights\022\002\031\001\032\002\000\000\"\002\031\001(\0012klinear/linear_model/education-num_bucketized_X_hours-per-week_bucketized/weights/part_0/Initializer/zeros:08\001"
        value: "\n3linear/linear_model/marital-status/weights/part_0:0\0228linear/linear_model/marital-status/weights/part_0/Assign\032Glinear/linear_model/marital-status/weights/part_0/Read/ReadVariableOp:0\"8\n*linear/linear_model/marital-status/weights\022\002\007\001\032\002\000\000\"\002\007\001(\0012Elinear/linear_model/marital-status/weights/part_0/Initializer/zeros:08\001"
        value: "\n/linear/linear_model/occupation/weights/part_0:0\0224linear/linear_model/occupation/weights/part_0/Assign\032Clinear/linear_model/occupation/weights/part_0/Read/ReadVariableOp:0\"4\n&linear/linear_model/occupation/weights\022\002\017\001\032\002\000\000\"\002\017\001(\0012Alinear/linear_model/occupation/weights/part_0/Initializer/zeros:08\001"
        value: "\n)linear/linear_model/race/weights/part_0:0\022.linear/linear_model/race/weights/part_0/Assign\032=linear/linear_model/race/weights/part_0/Read/ReadVariableOp:0\".\n linear/linear_model/race/weights\022\002\005\001\032\002\000\000\"\002\005\001(\0012;linear/linear_model/race/weights/part_0/Initializer/zeros:08\001"
        value: "\n1linear/linear_model/relationship/weights/part_0:0\0226linear/linear_model/relationship/weights/part_0/Assign\032Elinear/linear_model/relationship/weights/part_0/Read/ReadVariableOp:0\"6\n(linear/linear_model/relationship/weights\022\002\006\001\032\002\000\000\"\002\006\001(\0012Clinear/linear_model/relationship/weights/part_0/Initializer/zeros:08\001"
        value: "\n(linear/linear_model/sex/weights/part_0:0\022-linear/linear_model/sex/weights/part_0/Assign\032<linear/linear_model/sex/weights/part_0/Read/ReadVariableOp:0\"-\n\037linear/linear_model/sex/weights\022\002\002\001\032\002\000\000\"\002\002\001(\0012:linear/linear_model/sex/weights/part_0/Initializer/zeros:08\001"
        value: "\n.linear/linear_model/workclass/weights/part_0:0\0223linear/linear_model/workclass/weights/part_0/Assign\032Blinear/linear_model/workclass/weights/part_0/Read/ReadVariableOp:0\"3\n%linear/linear_model/workclass/weights\022\002\t\001\032\002\000\000\"\002\t\001(\0012@linear/linear_model/workclass/weights/part_0/Initializer/zeros:08\001"
        value: "\n)linear/linear_model/bias_weights/part_0:0\022.linear/linear_model/bias_weights/part_0/Assign\032=linear/linear_model/bias_weights/part_0/Read/ReadVariableOp:0\"+\n linear/linear_model/bias_weights\022\001\001\032\001\000\"\001\001(\0012;linear/linear_model/bias_weights/part_0/Initializer/zeros:08\001"
      }
    }
  }
  collection_def {
    key: "variables"
    value {
      bytes_list {
        value: "\n\rglobal_step:0\022\022global_step/Assign\032\022global_step/read:02\037global_step/Initializer/zeros:0H\003"
        value: "\n!dnn/hiddenlayer_0/kernel/part_0:0\022&dnn/hiddenlayer_0/kernel/part_0/Assign\0325dnn/hiddenlayer_0/kernel/part_0/Read/ReadVariableOp:0\"&\n\030dnn/hiddenlayer_0/kernel\022\002Ad\032\002\000\000\"\002Ad(\0012<dnn/hiddenlayer_0/kernel/part_0/Initializer/random_uniform:08\001"
        value: "\n\037dnn/hiddenlayer_0/bias/part_0:0\022$dnn/hiddenlayer_0/bias/part_0/Assign\0323dnn/hiddenlayer_0/bias/part_0/Read/ReadVariableOp:0\"!\n\026dnn/hiddenlayer_0/bias\022\001d\032\001\000\"\001d(\00121dnn/hiddenlayer_0/bias/part_0/Initializer/zeros:08\001"
        value: "\n!dnn/hiddenlayer_1/kernel/part_0:0\022&dnn/hiddenlayer_1/kernel/part_0/Assign\0325dnn/hiddenlayer_1/kernel/part_0/Read/ReadVariableOp:0\"&\n\030dnn/hiddenlayer_1/kernel\022\002dK\032\002\000\000\"\002dK(\0012<dnn/hiddenlayer_1/kernel/part_0/Initializer/random_uniform:08\001"
        value: "\n\037dnn/hiddenlayer_1/bias/part_0:0\022$dnn/hiddenlayer_1/bias/part_0/Assign\0323dnn/hiddenlayer_1/bias/part_0/Read/ReadVariableOp:0\"!\n\026dnn/hiddenlayer_1/bias\022\001K\032\001\000\"\001K(\00121dnn/hiddenlayer_1/bias/part_0/Initializer/zeros:08\001"
        value: "\n!dnn/hiddenlayer_2/kernel/part_0:0\022&dnn/hiddenlayer_2/kernel/part_0/Assign\0325dnn/hiddenlayer_2/kernel/part_0/Read/ReadVariableOp:0\"&\n\030dnn/hiddenlayer_2/kernel\022\002K2\032\002\000\000\"\002K2(\0012<dnn/hiddenlayer_2/kernel/part_0/Initializer/random_uniform:08\001"
        value: "\n\037dnn/hiddenlayer_2/bias/part_0:0\022$dnn/hiddenlayer_2/bias/part_0/Assign\0323dnn/hiddenlayer_2/bias/part_0/Read/ReadVariableOp:0\"!\n\026dnn/hiddenlayer_2/bias\022\0012\032\001\000\"\0012(\00121dnn/hiddenlayer_2/bias/part_0/Initializer/zeros:08\001"
        value: "\n!dnn/hiddenlayer_3/kernel/part_0:0\022&dnn/hiddenlayer_3/kernel/part_0/Assign\0325dnn/hiddenlayer_3/kernel/part_0/Read/ReadVariableOp:0\"&\n\030dnn/hiddenlayer_3/kernel\022\0022\031\032\002\000\000\"\0022\031(\0012<dnn/hiddenlayer_3/kernel/part_0/Initializer/random_uniform:08\001"
        value: "\n\037dnn/hiddenlayer_3/bias/part_0:0\022$dnn/hiddenlayer_3/bias/part_0/Assign\0323dnn/hiddenlayer_3/bias/part_0/Read/ReadVariableOp:0\"!\n\026dnn/hiddenlayer_3/bias\022\001\031\032\001\000\"\001\031(\00121dnn/hiddenlayer_3/bias/part_0/Initializer/zeros:08\001"
        value: "\n\032dnn/logits/kernel/part_0:0\022\037dnn/logits/kernel/part_0/Assign\032.dnn/logits/kernel/part_0/Read/ReadVariableOp:0\"\037\n\021dnn/logits/kernel\022\002\031\001\032\002\000\000\"\002\031\001(\00125dnn/logits/kernel/part_0/Initializer/random_uniform:08\001"
        value: "\n\030dnn/logits/bias/part_0:0\022\035dnn/logits/bias/part_0/Assign\032,dnn/logits/bias/part_0/Read/ReadVariableOp:0\"\032\n\017dnn/logits/bias\022\001\001\032\001\000\"\001\001(\0012*dnn/logits/bias/part_0/Initializer/zeros:08\001"
        value: "\nMlinear/linear_model/age_bucketized_X_capital-gain_bucketized/weights/part_0:0\022Rlinear/linear_model/age_bucketized_X_capital-gain_bucketized/weights/part_0/Assign\032alinear/linear_model/age_bucketized_X_capital-gain_bucketized/weights/part_0/Read/ReadVariableOp:0\"R\nDlinear/linear_model/age_bucketized_X_capital-gain_bucketized/weights\022\002\n\001\032\002\000\000\"\002\n\001(\0012_linear/linear_model/age_bucketized_X_capital-gain_bucketized/weights/part_0/Initializer/zeros:08\001"
        value: "\nNlinear/linear_model/age_bucketized_X_education-num_bucketized/weights/part_0:0\022Slinear/linear_model/age_bucketized_X_education-num_bucketized/weights/part_0/Assign\032blinear/linear_model/age_bucketized_X_education-num_bucketized/weights/part_0/Read/ReadVariableOp:0\"S\nElinear/linear_model/age_bucketized_X_education-num_bucketized/weights\022\002\n\001\032\002\000\000\"\002\n\001(\0012`linear/linear_model/age_bucketized_X_education-num_bucketized/weights/part_0/Initializer/zeros:08\001"
        value: "\nXlinear/linear_model/capital-loss_bucketized_X_hours-per-week_bucketized/weights/part_0:0\022]linear/linear_model/capital-loss_bucketized_X_hours-per-week_bucketized/weights/part_0/Assign\032llinear/linear_model/capital-loss_bucketized_X_hours-per-week_bucketized/weights/part_0/Read/ReadVariableOp:0\"]\nOlinear/linear_model/capital-loss_bucketized_X_hours-per-week_bucketized/weights\022\002\n\001\032\002\000\000\"\002\n\001(\0012jlinear/linear_model/capital-loss_bucketized_X_hours-per-week_bucketized/weights/part_0/Initializer/zeros:08\001"
        value: "\n.linear/linear_model/education/weights/part_0:0\0223linear/linear_model/education/weights/part_0/Assign\032Blinear/linear_model/education/weights/part_0/Read/ReadVariableOp:0\"3\n%linear/linear_model/education/weights\022\002\020\001\032\002\000\000\"\002\020\001(\0012@linear/linear_model/education/weights/part_0/Initializer/zeros:08\001"
        value: "\nYlinear/linear_model/education-num_bucketized_X_hours-per-week_bucketized/weights/part_0:0\022^linear/linear_model/education-num_bucketized_X_hours-per-week_bucketized/weights/part_0/Assign\032mlinear/linear_model/education-num_bucketized_X_hours-per-week_bucketized/weights/part_0/Read/ReadVariableOp:0\"^\nPlinear/linear_model/education-num_bucketized_X_hours-per-week_bucketized/weights\022\002\031\001\032\002\000\000\"\002\031\001(\0012klinear/linear_model/education-num_bucketized_X_hours-per-week_bucketized/weights/part_0/Initializer/zeros:08\001"
        value: "\n3linear/linear_model/marital-status/weights/part_0:0\0228linear/linear_model/marital-status/weights/part_0/Assign\032Glinear/linear_model/marital-status/weights/part_0/Read/ReadVariableOp:0\"8\n*linear/linear_model/marital-status/weights\022\002\007\001\032\002\000\000\"\002\007\001(\0012Elinear/linear_model/marital-status/weights/part_0/Initializer/zeros:08\001"
        value: "\n/linear/linear_model/occupation/weights/part_0:0\0224linear/linear_model/occupation/weights/part_0/Assign\032Clinear/linear_model/occupation/weights/part_0/Read/ReadVariableOp:0\"4\n&linear/linear_model/occupation/weights\022\002\017\001\032\002\000\000\"\002\017\001(\0012Alinear/linear_model/occupation/weights/part_0/Initializer/zeros:08\001"
        value: "\n)linear/linear_model/race/weights/part_0:0\022.linear/linear_model/race/weights/part_0/Assign\032=linear/linear_model/race/weights/part_0/Read/ReadVariableOp:0\".\n linear/linear_model/race/weights\022\002\005\001\032\002\000\000\"\002\005\001(\0012;linear/linear_model/race/weights/part_0/Initializer/zeros:08\001"
        value: "\n1linear/linear_model/relationship/weights/part_0:0\0226linear/linear_model/relationship/weights/part_0/Assign\032Elinear/linear_model/relationship/weights/part_0/Read/ReadVariableOp:0\"6\n(linear/linear_model/relationship/weights\022\002\006\001\032\002\000\000\"\002\006\001(\0012Clinear/linear_model/relationship/weights/part_0/Initializer/zeros:08\001"
        value: "\n(linear/linear_model/sex/weights/part_0:0\022-linear/linear_model/sex/weights/part_0/Assign\032<linear/linear_model/sex/weights/part_0/Read/ReadVariableOp:0\"-\n\037linear/linear_model/sex/weights\022\002\002\001\032\002\000\000\"\002\002\001(\0012:linear/linear_model/sex/weights/part_0/Initializer/zeros:08\001"
        value: "\n.linear/linear_model/workclass/weights/part_0:0\0223linear/linear_model/workclass/weights/part_0/Assign\032Blinear/linear_model/workclass/weights/part_0/Read/ReadVariableOp:0\"3\n%linear/linear_model/workclass/weights\022\002\t\001\032\002\000\000\"\002\t\001(\0012@linear/linear_model/workclass/weights/part_0/Initializer/zeros:08\001"
        value: "\n)linear/linear_model/bias_weights/part_0:0\022.linear/linear_model/bias_weights/part_0/Assign\032=linear/linear_model/bias_weights/part_0/Read/ReadVariableOp:0\"+\n linear/linear_model/bias_weights\022\001\001\032\001\000\"\001\001(\0012;linear/linear_model/bias_weights/part_0/Initializer/zeros:08\001"
      }
    }
  }
  signature_def {
    key: "predict"
    value {
      inputs {
        key: "age"
        value {
          name: "age:0"
          dtype: DT_INT32
          tensor_shape {
            dim {
              size: -1
            }
          }
        }
      }
      inputs {
        key: "capital-gain"
        value {
          name: "capital-gain:0"
          dtype: DT_DOUBLE
          tensor_shape {
            dim {
              size: -1
            }
          }
        }
      }
      inputs {
        key: "capital-loss"
        value {
          name: "capital-loss:0"
          dtype: DT_INT64
          tensor_shape {
            dim {
              size: -1
            }
          }
        }
      }
      inputs {
        key: "education"
        value {
          name: "education:0"
          dtype: DT_STRING
          tensor_shape {
            dim {
              size: -1
            }
          }
        }
      }
      inputs {
        key: "education-num"
        value {
          name: "education-num:0"
          dtype: DT_INT32
          tensor_shape {
            dim {
              size: -1
            }
          }
        }
      }
      inputs {
        key: "hours-per-week"
        value {
          name: "hours-per-week:0"
          dtype: DT_INT32
          tensor_shape {
            dim {
              size: -1
            }
          }
        }
      }
      inputs {
        key: "marital-status"
        value {
          name: "marital-status:0"
          dtype: DT_STRING
          tensor_shape {
            dim {
              size: -1
            }
          }
        }
      }
      inputs {
        key: "occupation"
        value {
          name: "occupation:0"
          dtype: DT_STRING
          tensor_shape {
            dim {
              size: -1
            }
          }
        }
      }
      inputs {
        key: "race"
        value {
          name: "race:0"
          dtype: DT_STRING
          tensor_shape {
            dim {
              size: -1
            }
          }
        }
      }
      inputs {
        key: "relationship"
        value {
          name: "relationship:0"
          dtype: DT_STRING
          tensor_shape {
            dim {
              size: -1
            }
          }
        }
      }
      inputs {
        key: "sex"
        value {
          name: "sex:0"
          dtype: DT_STRING
          tensor_shape {
            dim {
              size: -1
            }
          }
        }
      }
      inputs {
        key: "workclass"
        value {
          name: "workclass:0"
          dtype: DT_STRING
          tensor_shape {
            dim {
              size: -1
            }
          }
        }
      }
      outputs {
        key: "all_class_ids"
        value {
          name: "head/predictions/Tile:0"
          dtype: DT_INT32
          tensor_shape {
            dim {
              size: -1
            }
            dim {
              size: 2
            }
          }
        }
      }
      outputs {
        key: "all_classes"
        value {
          name: "head/predictions/Tile_1:0"
          dtype: DT_STRING
          tensor_shape {
            dim {
              size: -1
            }
            dim {
              size: 2
            }
          }
        }
      }
      outputs {
        key: "class_ids"
        value {
          name: "head/predictions/ExpandDims:0"
          dtype: DT_INT64
          tensor_shape {
            dim {
              size: -1
            }
            dim {
              size: 1
            }
          }
        }
      }
      outputs {
        key: "classes"
        value {
          name: "head/predictions/str_classes:0"
          dtype: DT_STRING
          tensor_shape {
            dim {
              size: -1
            }
            dim {
              size: 1
            }
          }
        }
      }
      outputs {
        key: "logistic"
        value {
          name: "head/predictions/logistic:0"
          dtype: DT_FLOAT
          tensor_shape {
            dim {
              size: -1
            }
            dim {
              size: 1
            }
          }
        }
      }
      outputs {
        key: "logits"
        value {
          name: "add:0"
          dtype: DT_FLOAT
          tensor_shape {
            dim {
              size: -1
            }
            dim {
              size: 1
            }
          }
        }
      }
      outputs {
        key: "probabilities"
        value {
          name: "head/predictions/probabilities:0"
          dtype: DT_FLOAT
          tensor_shape {
            dim {
              size: -1
            }
            dim {
              size: 2
            }
          }
        }
      }
      method_name: "tensorflow/serving/predict"
    }
  }
}
